node {
  name: "global_step/Initializer/zeros"
  op: "Const"
  attr {
    key: "_class"
    value {
      list {
        s: "loc:@global_step"
      }
    }
  }
  attr {
    key: "_output_shapes"
    value {
      list {
        shape {
        }
      }
    }
  }
  attr {
    key: "dtype"
    value {
      type: DT_INT64
    }
  }
  attr {
    key: "value"
    value {
      tensor {
        dtype: DT_INT64
        tensor_shape {
        }
        int64_val: 0
      }
    }
  }
  experimental_debug_info {
  }
}
node {
  name: "global_step"
  op: "VarHandleOp"
  attr {
    key: "_class"
    value {
      list {
        s: "loc:@global_step"
      }
    }
  }
  attr {
    key: "_output_shapes"
    value {
      list {
        shape {
        }
      }
    }
  }
  attr {
    key: "container"
    value {
      s: ""
    }
  }
  attr {
    key: "dtype"
    value {
      type: DT_INT64
    }
  }
  attr {
    key: "shape"
    value {
      shape {
      }
    }
  }
  attr {
    key: "shared_name"
    value {
      s: "global_step"
    }
  }
  experimental_debug_info {
  }
}
node {
  name: "global_step/IsInitialized/VarIsInitializedOp"
  op: "VarIsInitializedOp"
  input: "global_step"
  attr {
    key: "_output_shapes"
    value {
      list {
        shape {
        }
      }
    }
  }
  experimental_debug_info {
  }
}
node {
  name: "global_step/Assign"
  op: "AssignVariableOp"
  input: "global_step"
  input: "global_step/Initializer/zeros"
  attr {
    key: "dtype"
    value {
      type: DT_INT64
    }
  }
  experimental_debug_info {
  }
}
node {
  name: "global_step/Read/ReadVariableOp"
  op: "ReadVariableOp"
  input: "global_step"
  attr {
    key: "_output_shapes"
    value {
      list {
        shape {
        }
      }
    }
  }
  attr {
    key: "dtype"
    value {
      type: DT_INT64
    }
  }
  experimental_debug_info {
  }
}
node {
  name: "global_step/VarIsInitializedOp"
  op: "VarIsInitializedOp"
  input: "global_step"
  attr {
    key: "_output_shapes"
    value {
      list {
        shape {
        }
      }
    }
  }
  experimental_debug_info {
  }
}
node {
  name: "global_step/cond"
  op: "If"
  input: "global_step/VarIsInitializedOp"
  input: "global_step"
  input: "global_step/Initializer/zeros"
  attr {
    key: "Tcond"
    value {
      type: DT_BOOL
    }
  }
  attr {
    key: "Tin"
    value {
      list {
        type: DT_RESOURCE
        type: DT_INT64
      }
    }
  }
  attr {
    key: "Tout"
    value {
      list {
        type: DT_INT64
      }
    }
  }
  attr {
    key: "_lower_using_switch_merge"
    value {
      b: true
    }
  }
  attr {
    key: "_output_shapes"
    value {
      list {
        shape {
        }
      }
    }
  }
  attr {
    key: "_read_only_resource_inputs"
    value {
      list {
        i: 1
      }
    }
  }
  attr {
    key: "else_branch"
    value {
      func {
        name: "global_step_cond_false_7"
      }
    }
  }
  attr {
    key: "output_shapes"
    value {
      list {
        shape {
        }
      }
    }
  }
  attr {
    key: "then_branch"
    value {
      func {
        name: "global_step_cond_true_6"
      }
    }
  }
  experimental_debug_info {
  }
}
node {
  name: "global_step/cond/Identity"
  op: "Identity"
  input: "global_step/cond"
  attr {
    key: "T"
    value {
      type: DT_INT64
    }
  }
  attr {
    key: "_output_shapes"
    value {
      list {
        shape {
        }
      }
    }
  }
  experimental_debug_info {
  }
}
node {
  name: "global_step/add/y"
  op: "Const"
  attr {
    key: "_output_shapes"
    value {
      list {
        shape {
        }
      }
    }
  }
  attr {
    key: "dtype"
    value {
      type: DT_INT64
    }
  }
  attr {
    key: "value"
    value {
      tensor {
        dtype: DT_INT64
        tensor_shape {
        }
        int64_val: 0
      }
    }
  }
  experimental_debug_info {
  }
}
node {
  name: "global_step/add"
  op: "AddV2"
  input: "global_step/cond/Identity"
  input: "global_step/add/y"
  attr {
    key: "T"
    value {
      type: DT_INT64
    }
  }
  attr {
    key: "_output_shapes"
    value {
      list {
        shape {
        }
      }
    }
  }
  experimental_debug_info {
  }
}
node {
  name: "normalize_element/component_0"
  op: "Const"
  device: "/device:CPU:0"
  attr {
    key: "_output_shapes"
    value {
      list {
        shape {
          dim {
            size: 1
          }
        }
      }
    }
  }
  attr {
    key: "dtype"
    value {
      type: DT_STRING
    }
  }
  attr {
    key: "value"
    value {
      tensor {
        dtype: DT_STRING
        tensor_shape {
          dim {
            size: 1
          }
        }
        string_val: "./tfds/mnist/3.0.1/mnist-train.tfrecord-00000-of-00001"
      }
    }
  }
  experimental_debug_info {
  }
}
node {
  name: "normalize_element/component_1"
  op: "Const"
  device: "/device:CPU:0"
  attr {
    key: "_output_shapes"
    value {
      list {
        shape {
          dim {
            size: 1
          }
        }
      }
    }
  }
  attr {
    key: "dtype"
    value {
      type: DT_STRING
    }
  }
  attr {
    key: "value"
    value {
      tensor {
        dtype: DT_STRING
        tensor_shape {
          dim {
            size: 1
          }
        }
        string_val: "mnist-train.tfrecord-00000-of-00001"
      }
    }
  }
  experimental_debug_info {
  }
}
node {
  name: "normalize_element/component_2"
  op: "Const"
  device: "/device:CPU:0"
  attr {
    key: "_output_shapes"
    value {
      list {
        shape {
          dim {
            size: 1
          }
        }
      }
    }
  }
  attr {
    key: "dtype"
    value {
      type: DT_INT64
    }
  }
  attr {
    key: "value"
    value {
      tensor {
        dtype: DT_INT64
        tensor_shape {
          dim {
            size: 1
          }
        }
        int64_val: 0
      }
    }
  }
  experimental_debug_info {
  }
}
node {
  name: "normalize_element/component_3"
  op: "Const"
  device: "/device:CPU:0"
  attr {
    key: "_output_shapes"
    value {
      list {
        shape {
          dim {
            size: 1
          }
        }
      }
    }
  }
  attr {
    key: "dtype"
    value {
      type: DT_INT64
    }
  }
  attr {
    key: "value"
    value {
      tensor {
        dtype: DT_INT64
        tensor_shape {
          dim {
            size: 1
          }
        }
        int64_val: -1
      }
    }
  }
  experimental_debug_info {
  }
}
node {
  name: "TensorSliceDataset"
  op: "TensorSliceDataset"
  input: "normalize_element/component_0"
  input: "normalize_element/component_1"
  input: "normalize_element/component_2"
  input: "normalize_element/component_3"
  device: "/device:CPU:0"
  attr {
    key: "Toutput_types"
    value {
      list {
        type: DT_STRING
        type: DT_STRING
        type: DT_INT64
        type: DT_INT64
      }
    }
  }
  attr {
    key: "_output_shapes"
    value {
      list {
        shape {
        }
      }
    }
  }
  attr {
    key: "output_shapes"
    value {
      list {
        shape {
        }
        shape {
        }
        shape {
        }
        shape {
        }
      }
    }
  }
  experimental_debug_info {
  }
}
node {
  name: "cycle_length"
  op: "Const"
  device: "/device:CPU:0"
  attr {
    key: "_output_shapes"
    value {
      list {
        shape {
        }
      }
    }
  }
  attr {
    key: "dtype"
    value {
      type: DT_INT64
    }
  }
  attr {
    key: "value"
    value {
      tensor {
        dtype: DT_INT64
        tensor_shape {
        }
        int64_val: 16
      }
    }
  }
  experimental_debug_info {
  }
}
node {
  name: "block_length"
  op: "Const"
  device: "/device:CPU:0"
  attr {
    key: "_output_shapes"
    value {
      list {
        shape {
        }
      }
    }
  }
  attr {
    key: "dtype"
    value {
      type: DT_INT64
    }
  }
  attr {
    key: "value"
    value {
      tensor {
        dtype: DT_INT64
        tensor_shape {
        }
        int64_val: 16
      }
    }
  }
  experimental_debug_info {
  }
}
node {
  name: "buffer_output_elements"
  op: "Const"
  device: "/device:CPU:0"
  attr {
    key: "_output_shapes"
    value {
      list {
        shape {
        }
      }
    }
  }
  attr {
    key: "dtype"
    value {
      type: DT_INT64
    }
  }
  attr {
    key: "value"
    value {
      tensor {
        dtype: DT_INT64
        tensor_shape {
        }
        int64_val: -1
      }
    }
  }
  experimental_debug_info {
  }
}
node {
  name: "prefetch_input_elements"
  op: "Const"
  device: "/device:CPU:0"
  attr {
    key: "_output_shapes"
    value {
      list {
        shape {
        }
      }
    }
  }
  attr {
    key: "dtype"
    value {
      type: DT_INT64
    }
  }
  attr {
    key: "value"
    value {
      tensor {
        dtype: DT_INT64
        tensor_shape {
        }
        int64_val: -1
      }
    }
  }
  experimental_debug_info {
  }
}
node {
  name: "num_parallel_calls"
  op: "Const"
  device: "/device:CPU:0"
  attr {
    key: "_output_shapes"
    value {
      list {
        shape {
        }
      }
    }
  }
  attr {
    key: "dtype"
    value {
      type: DT_INT64
    }
  }
  attr {
    key: "value"
    value {
      tensor {
        dtype: DT_INT64
        tensor_shape {
        }
        int64_val: -1
      }
    }
  }
  experimental_debug_info {
  }
}
node {
  name: "ParallelInterleaveDatasetV3"
  op: "ParallelInterleaveDatasetV3"
  input: "TensorSliceDataset"
  input: "cycle_length"
  input: "block_length"
  input: "num_parallel_calls"
  device: "/device:CPU:0"
  attr {
    key: "Targuments"
    value {
      list {
      }
    }
  }
  attr {
    key: "_output_shapes"
    value {
      list {
        shape {
        }
      }
    }
  }
  attr {
    key: "deterministic"
    value {
      s: "default"
    }
  }
  attr {
    key: "f"
    value {
      func {
        name: "__inference_Dataset_interleave_classfunctools.partial_42"
      }
    }
  }
  attr {
    key: "output_shapes"
    value {
      list {
        shape {
        }
      }
    }
  }
  attr {
    key: "output_types"
    value {
      list {
        type: DT_STRING
      }
    }
  }
  experimental_debug_info {
  }
}
node {
  name: "expected_cardinality"
  op: "Const"
  device: "/device:CPU:0"
  attr {
    key: "_output_shapes"
    value {
      list {
        shape {
        }
      }
    }
  }
  attr {
    key: "dtype"
    value {
      type: DT_INT64
    }
  }
  attr {
    key: "value"
    value {
      tensor {
        dtype: DT_INT64
        tensor_shape {
        }
        int64_val: 60000
      }
    }
  }
  experimental_debug_info {
  }
}
node {
  name: "AssertCardinalityDataset"
  op: "AssertCardinalityDataset"
  input: "ParallelInterleaveDatasetV3"
  input: "expected_cardinality"
  device: "/device:CPU:0"
  attr {
    key: "_output_shapes"
    value {
      list {
        shape {
        }
      }
    }
  }
  attr {
    key: "output_shapes"
    value {
      list {
        shape {
        }
      }
    }
  }
  attr {
    key: "output_types"
    value {
      list {
        type: DT_STRING
      }
    }
  }
  experimental_debug_info {
  }
}
node {
  name: "num_parallel_calls_1"
  op: "Const"
  device: "/device:CPU:0"
  attr {
    key: "_output_shapes"
    value {
      list {
        shape {
        }
      }
    }
  }
  attr {
    key: "dtype"
    value {
      type: DT_INT32
    }
  }
  attr {
    key: "value"
    value {
      tensor {
        dtype: DT_INT32
        tensor_shape {
        }
        int_val: -1
      }
    }
  }
  experimental_debug_info {
  }
}
node {
  name: "ParallelMapDataset"
  op: "ParallelMapDataset"
  input: "AssertCardinalityDataset"
  input: "num_parallel_calls_1"
  device: "/device:CPU:0"
  attr {
    key: "Targuments"
    value {
      list {
      }
    }
  }
  attr {
    key: "_output_shapes"
    value {
      list {
        shape {
        }
      }
    }
  }
  attr {
    key: "f"
    value {
      func {
        name: "__inference_Dataset_map_parse_and_decode_150"
      }
    }
  }
  attr {
    key: "output_shapes"
    value {
      list {
        shape {
          dim {
            size: 28
          }
          dim {
            size: 28
          }
          dim {
            size: 1
          }
        }
        shape {
        }
      }
    }
  }
  attr {
    key: "output_types"
    value {
      list {
        type: DT_UINT8
        type: DT_INT64
      }
    }
  }
  attr {
    key: "preserve_cardinality"
    value {
      b: true
    }
  }
  attr {
    key: "sloppy"
    value {
      b: false
    }
  }
  attr {
    key: "use_inter_op_parallelism"
    value {
      b: true
    }
  }
  experimental_debug_info {
  }
}
node {
  name: "filename"
  op: "Const"
  device: "/device:CPU:0"
  attr {
    key: "_output_shapes"
    value {
      list {
        shape {
        }
      }
    }
  }
  attr {
    key: "dtype"
    value {
      type: DT_STRING
    }
  }
  attr {
    key: "value"
    value {
      tensor {
        dtype: DT_STRING
        tensor_shape {
        }
        string_val: ""
      }
    }
  }
  experimental_debug_info {
  }
}
node {
  name: "CacheDataset"
  op: "CacheDataset"
  input: "ParallelMapDataset"
  input: "filename"
  device: "/device:CPU:0"
  attr {
    key: "_output_shapes"
    value {
      list {
        shape {
        }
      }
    }
  }
  attr {
    key: "output_shapes"
    value {
      list {
        shape {
          dim {
            size: 28
          }
          dim {
            size: 28
          }
          dim {
            size: 1
          }
        }
        shape {
        }
      }
    }
  }
  attr {
    key: "output_types"
    value {
      list {
        type: DT_UINT8
        type: DT_INT64
      }
    }
  }
  experimental_debug_info {
  }
}
node {
  name: "buffer_size"
  op: "Const"
  device: "/device:CPU:0"
  attr {
    key: "_output_shapes"
    value {
      list {
        shape {
        }
      }
    }
  }
  attr {
    key: "dtype"
    value {
      type: DT_INT64
    }
  }
  attr {
    key: "value"
    value {
      tensor {
        dtype: DT_INT64
        tensor_shape {
        }
        int64_val: -1
      }
    }
  }
  experimental_debug_info {
  }
}
node {
  name: "PrefetchDataset"
  op: "PrefetchDataset"
  input: "CacheDataset"
  input: "buffer_size"
  device: "/device:CPU:0"
  attr {
    key: "_output_shapes"
    value {
      list {
        shape {
        }
      }
    }
  }
  attr {
    key: "legacy_autotune"
    value {
      b: true
    }
  }
  attr {
    key: "output_shapes"
    value {
      list {
        shape {
          dim {
            size: 28
          }
          dim {
            size: 28
          }
          dim {
            size: 1
          }
        }
        shape {
        }
      }
    }
  }
  attr {
    key: "output_types"
    value {
      list {
        type: DT_UINT8
        type: DT_INT64
      }
    }
  }
  attr {
    key: "slack_period"
    value {
      i: 0
    }
  }
  experimental_debug_info {
  }
}
node {
  name: "normalize_element_1/component_0"
  op: "Const"
  device: "/device:CPU:0"
  attr {
    key: "_output_shapes"
    value {
      list {
        shape {
          dim {
            size: 1
          }
        }
      }
    }
  }
  attr {
    key: "dtype"
    value {
      type: DT_STRING
    }
  }
  attr {
    key: "value"
    value {
      tensor {
        dtype: DT_STRING
        tensor_shape {
          dim {
            size: 1
          }
        }
        string_val: "./tfds/mnist/3.0.1/mnist-test.tfrecord-00000-of-00001"
      }
    }
  }
  experimental_debug_info {
  }
}
node {
  name: "normalize_element_1/component_1"
  op: "Const"
  device: "/device:CPU:0"
  attr {
    key: "_output_shapes"
    value {
      list {
        shape {
          dim {
            size: 1
          }
        }
      }
    }
  }
  attr {
    key: "dtype"
    value {
      type: DT_STRING
    }
  }
  attr {
    key: "value"
    value {
      tensor {
        dtype: DT_STRING
        tensor_shape {
          dim {
            size: 1
          }
        }
        string_val: "mnist-test.tfrecord-00000-of-00001"
      }
    }
  }
  experimental_debug_info {
  }
}
node {
  name: "normalize_element_1/component_2"
  op: "Const"
  device: "/device:CPU:0"
  attr {
    key: "_output_shapes"
    value {
      list {
        shape {
          dim {
            size: 1
          }
        }
      }
    }
  }
  attr {
    key: "dtype"
    value {
      type: DT_INT64
    }
  }
  attr {
    key: "value"
    value {
      tensor {
        dtype: DT_INT64
        tensor_shape {
          dim {
            size: 1
          }
        }
        int64_val: 0
      }
    }
  }
  experimental_debug_info {
  }
}
node {
  name: "normalize_element_1/component_3"
  op: "Const"
  device: "/device:CPU:0"
  attr {
    key: "_output_shapes"
    value {
      list {
        shape {
          dim {
            size: 1
          }
        }
      }
    }
  }
  attr {
    key: "dtype"
    value {
      type: DT_INT64
    }
  }
  attr {
    key: "value"
    value {
      tensor {
        dtype: DT_INT64
        tensor_shape {
          dim {
            size: 1
          }
        }
        int64_val: -1
      }
    }
  }
  experimental_debug_info {
  }
}
node {
  name: "TensorSliceDataset_1"
  op: "TensorSliceDataset"
  input: "normalize_element_1/component_0"
  input: "normalize_element_1/component_1"
  input: "normalize_element_1/component_2"
  input: "normalize_element_1/component_3"
  device: "/device:CPU:0"
  attr {
    key: "Toutput_types"
    value {
      list {
        type: DT_STRING
        type: DT_STRING
        type: DT_INT64
        type: DT_INT64
      }
    }
  }
  attr {
    key: "_output_shapes"
    value {
      list {
        shape {
        }
      }
    }
  }
  attr {
    key: "output_shapes"
    value {
      list {
        shape {
        }
        shape {
        }
        shape {
        }
        shape {
        }
      }
    }
  }
  experimental_debug_info {
  }
}
node {
  name: "cycle_length_1"
  op: "Const"
  device: "/device:CPU:0"
  attr {
    key: "_output_shapes"
    value {
      list {
        shape {
        }
      }
    }
  }
  attr {
    key: "dtype"
    value {
      type: DT_INT64
    }
  }
  attr {
    key: "value"
    value {
      tensor {
        dtype: DT_INT64
        tensor_shape {
        }
        int64_val: 16
      }
    }
  }
  experimental_debug_info {
  }
}
node {
  name: "block_length_1"
  op: "Const"
  device: "/device:CPU:0"
  attr {
    key: "_output_shapes"
    value {
      list {
        shape {
        }
      }
    }
  }
  attr {
    key: "dtype"
    value {
      type: DT_INT64
    }
  }
  attr {
    key: "value"
    value {
      tensor {
        dtype: DT_INT64
        tensor_shape {
        }
        int64_val: 16
      }
    }
  }
  experimental_debug_info {
  }
}
node {
  name: "buffer_output_elements_1"
  op: "Const"
  device: "/device:CPU:0"
  attr {
    key: "_output_shapes"
    value {
      list {
        shape {
        }
      }
    }
  }
  attr {
    key: "dtype"
    value {
      type: DT_INT64
    }
  }
  attr {
    key: "value"
    value {
      tensor {
        dtype: DT_INT64
        tensor_shape {
        }
        int64_val: -1
      }
    }
  }
  experimental_debug_info {
  }
}
node {
  name: "prefetch_input_elements_1"
  op: "Const"
  device: "/device:CPU:0"
  attr {
    key: "_output_shapes"
    value {
      list {
        shape {
        }
      }
    }
  }
  attr {
    key: "dtype"
    value {
      type: DT_INT64
    }
  }
  attr {
    key: "value"
    value {
      tensor {
        dtype: DT_INT64
        tensor_shape {
        }
        int64_val: -1
      }
    }
  }
  experimental_debug_info {
  }
}
node {
  name: "num_parallel_calls_2"
  op: "Const"
  device: "/device:CPU:0"
  attr {
    key: "_output_shapes"
    value {
      list {
        shape {
        }
      }
    }
  }
  attr {
    key: "dtype"
    value {
      type: DT_INT64
    }
  }
  attr {
    key: "value"
    value {
      tensor {
        dtype: DT_INT64
        tensor_shape {
        }
        int64_val: -1
      }
    }
  }
  experimental_debug_info {
  }
}
node {
  name: "ParallelInterleaveDatasetV3_1"
  op: "ParallelInterleaveDatasetV3"
  input: "TensorSliceDataset_1"
  input: "cycle_length_1"
  input: "block_length_1"
  input: "num_parallel_calls_2"
  device: "/device:CPU:0"
  attr {
    key: "Targuments"
    value {
      list {
      }
    }
  }
  attr {
    key: "_output_shapes"
    value {
      list {
        shape {
        }
      }
    }
  }
  attr {
    key: "deterministic"
    value {
      s: "default"
    }
  }
  attr {
    key: "f"
    value {
      func {
        name: "__inference_Dataset_interleave_classfunctools.partial_179"
      }
    }
  }
  attr {
    key: "output_shapes"
    value {
      list {
        shape {
        }
      }
    }
  }
  attr {
    key: "output_types"
    value {
      list {
        type: DT_STRING
      }
    }
  }
  experimental_debug_info {
  }
}
node {
  name: "expected_cardinality_1"
  op: "Const"
  device: "/device:CPU:0"
  attr {
    key: "_output_shapes"
    value {
      list {
        shape {
        }
      }
    }
  }
  attr {
    key: "dtype"
    value {
      type: DT_INT64
    }
  }
  attr {
    key: "value"
    value {
      tensor {
        dtype: DT_INT64
        tensor_shape {
        }
        int64_val: 10000
      }
    }
  }
  experimental_debug_info {
  }
}
node {
  name: "AssertCardinalityDataset_1"
  op: "AssertCardinalityDataset"
  input: "ParallelInterleaveDatasetV3_1"
  input: "expected_cardinality_1"
  device: "/device:CPU:0"
  attr {
    key: "_output_shapes"
    value {
      list {
        shape {
        }
      }
    }
  }
  attr {
    key: "output_shapes"
    value {
      list {
        shape {
        }
      }
    }
  }
  attr {
    key: "output_types"
    value {
      list {
        type: DT_STRING
      }
    }
  }
  experimental_debug_info {
  }
}
node {
  name: "num_parallel_calls_3"
  op: "Const"
  device: "/device:CPU:0"
  attr {
    key: "_output_shapes"
    value {
      list {
        shape {
        }
      }
    }
  }
  attr {
    key: "dtype"
    value {
      type: DT_INT32
    }
  }
  attr {
    key: "value"
    value {
      tensor {
        dtype: DT_INT32
        tensor_shape {
        }
        int_val: -1
      }
    }
  }
  experimental_debug_info {
  }
}
node {
  name: "ParallelMapDataset_1"
  op: "ParallelMapDataset"
  input: "AssertCardinalityDataset_1"
  input: "num_parallel_calls_3"
  device: "/device:CPU:0"
  attr {
    key: "Targuments"
    value {
      list {
      }
    }
  }
  attr {
    key: "_output_shapes"
    value {
      list {
        shape {
        }
      }
    }
  }
  attr {
    key: "f"
    value {
      func {
        name: "__inference_Dataset_map_parse_and_decode_287"
      }
    }
  }
  attr {
    key: "output_shapes"
    value {
      list {
        shape {
          dim {
            size: 28
          }
          dim {
            size: 28
          }
          dim {
            size: 1
          }
        }
        shape {
        }
      }
    }
  }
  attr {
    key: "output_types"
    value {
      list {
        type: DT_UINT8
        type: DT_INT64
      }
    }
  }
  attr {
    key: "preserve_cardinality"
    value {
      b: true
    }
  }
  attr {
    key: "sloppy"
    value {
      b: false
    }
  }
  attr {
    key: "use_inter_op_parallelism"
    value {
      b: true
    }
  }
  experimental_debug_info {
  }
}
node {
  name: "filename_1"
  op: "Const"
  device: "/device:CPU:0"
  attr {
    key: "_output_shapes"
    value {
      list {
        shape {
        }
      }
    }
  }
  attr {
    key: "dtype"
    value {
      type: DT_STRING
    }
  }
  attr {
    key: "value"
    value {
      tensor {
        dtype: DT_STRING
        tensor_shape {
        }
        string_val: ""
      }
    }
  }
  experimental_debug_info {
  }
}
node {
  name: "CacheDataset_1"
  op: "CacheDataset"
  input: "ParallelMapDataset_1"
  input: "filename_1"
  device: "/device:CPU:0"
  attr {
    key: "_output_shapes"
    value {
      list {
        shape {
        }
      }
    }
  }
  attr {
    key: "output_shapes"
    value {
      list {
        shape {
          dim {
            size: 28
          }
          dim {
            size: 28
          }
          dim {
            size: 1
          }
        }
        shape {
        }
      }
    }
  }
  attr {
    key: "output_types"
    value {
      list {
        type: DT_UINT8
        type: DT_INT64
      }
    }
  }
  experimental_debug_info {
  }
}
node {
  name: "buffer_size_1"
  op: "Const"
  device: "/device:CPU:0"
  attr {
    key: "_output_shapes"
    value {
      list {
        shape {
        }
      }
    }
  }
  attr {
    key: "dtype"
    value {
      type: DT_INT64
    }
  }
  attr {
    key: "value"
    value {
      tensor {
        dtype: DT_INT64
        tensor_shape {
        }
        int64_val: -1
      }
    }
  }
  experimental_debug_info {
  }
}
node {
  name: "PrefetchDataset_1"
  op: "PrefetchDataset"
  input: "CacheDataset_1"
  input: "buffer_size_1"
  device: "/device:CPU:0"
  attr {
    key: "_output_shapes"
    value {
      list {
        shape {
        }
      }
    }
  }
  attr {
    key: "legacy_autotune"
    value {
      b: true
    }
  }
  attr {
    key: "output_shapes"
    value {
      list {
        shape {
          dim {
            size: 28
          }
          dim {
            size: 28
          }
          dim {
            size: 1
          }
        }
        shape {
        }
      }
    }
  }
  attr {
    key: "output_types"
    value {
      list {
        type: DT_UINT8
        type: DT_INT64
      }
    }
  }
  attr {
    key: "slack_period"
    value {
      i: 0
    }
  }
  experimental_debug_info {
  }
}
node {
  name: "buffer_size_2"
  op: "Const"
  device: "/device:CPU:0"
  attr {
    key: "_output_shapes"
    value {
      list {
        shape {
        }
      }
    }
  }
  attr {
    key: "dtype"
    value {
      type: DT_INT64
    }
  }
  attr {
    key: "value"
    value {
      tensor {
        dtype: DT_INT64
        tensor_shape {
        }
        int64_val: 60000
      }
    }
  }
  experimental_debug_info {
  }
}
node {
  name: "seed"
  op: "Const"
  device: "/device:CPU:0"
  attr {
    key: "_output_shapes"
    value {
      list {
        shape {
        }
      }
    }
  }
  attr {
    key: "dtype"
    value {
      type: DT_INT64
    }
  }
  attr {
    key: "value"
    value {
      tensor {
        dtype: DT_INT64
        tensor_shape {
        }
        int64_val: 0
      }
    }
  }
  experimental_debug_info {
  }
}
node {
  name: "seed2"
  op: "Const"
  device: "/device:CPU:0"
  attr {
    key: "_output_shapes"
    value {
      list {
        shape {
        }
      }
    }
  }
  attr {
    key: "dtype"
    value {
      type: DT_INT64
    }
  }
  attr {
    key: "value"
    value {
      tensor {
        dtype: DT_INT64
        tensor_shape {
        }
        int64_val: 0
      }
    }
  }
  experimental_debug_info {
  }
}
node {
  name: "ShuffleDataset"
  op: "ShuffleDataset"
  input: "PrefetchDataset"
  input: "buffer_size_2"
  input: "seed"
  input: "seed2"
  device: "/device:CPU:0"
  attr {
    key: "_output_shapes"
    value {
      list {
        shape {
        }
      }
    }
  }
  attr {
    key: "output_shapes"
    value {
      list {
        shape {
          dim {
            size: 28
          }
          dim {
            size: 28
          }
          dim {
            size: 1
          }
        }
        shape {
        }
      }
    }
  }
  attr {
    key: "output_types"
    value {
      list {
        type: DT_UINT8
        type: DT_INT64
      }
    }
  }
  attr {
    key: "reshuffle_each_iteration"
    value {
      b: true
    }
  }
  experimental_debug_info {
  }
}
node {
  name: "count"
  op: "Const"
  device: "/device:CPU:0"
  attr {
    key: "_output_shapes"
    value {
      list {
        shape {
        }
      }
    }
  }
  attr {
    key: "dtype"
    value {
      type: DT_INT64
    }
  }
  attr {
    key: "value"
    value {
      tensor {
        dtype: DT_INT64
        tensor_shape {
        }
        int64_val: -1
      }
    }
  }
  experimental_debug_info {
  }
}
node {
  name: "RepeatDataset"
  op: "RepeatDataset"
  input: "ShuffleDataset"
  input: "count"
  device: "/device:CPU:0"
  attr {
    key: "_output_shapes"
    value {
      list {
        shape {
        }
      }
    }
  }
  attr {
    key: "output_shapes"
    value {
      list {
        shape {
          dim {
            size: 28
          }
          dim {
            size: 28
          }
          dim {
            size: 1
          }
        }
        shape {
        }
      }
    }
  }
  attr {
    key: "output_types"
    value {
      list {
        type: DT_UINT8
        type: DT_INT64
      }
    }
  }
  experimental_debug_info {
  }
}
node {
  name: "batch_size"
  op: "Const"
  device: "/device:CPU:0"
  attr {
    key: "_output_shapes"
    value {
      list {
        shape {
        }
      }
    }
  }
  attr {
    key: "dtype"
    value {
      type: DT_INT64
    }
  }
  attr {
    key: "value"
    value {
      tensor {
        dtype: DT_INT64
        tensor_shape {
        }
        int64_val: 256
      }
    }
  }
  experimental_debug_info {
  }
}
node {
  name: "drop_remainder"
  op: "Const"
  device: "/device:CPU:0"
  attr {
    key: "_output_shapes"
    value {
      list {
        shape {
        }
      }
    }
  }
  attr {
    key: "dtype"
    value {
      type: DT_BOOL
    }
  }
  attr {
    key: "value"
    value {
      tensor {
        dtype: DT_BOOL
        tensor_shape {
        }
        bool_val: true
      }
    }
  }
  experimental_debug_info {
  }
}
node {
  name: "BatchDatasetV2"
  op: "BatchDatasetV2"
  input: "RepeatDataset"
  input: "batch_size"
  input: "drop_remainder"
  device: "/device:CPU:0"
  attr {
    key: "_output_shapes"
    value {
      list {
        shape {
        }
      }
    }
  }
  attr {
    key: "output_shapes"
    value {
      list {
        shape {
          dim {
            size: 256
          }
          dim {
            size: 28
          }
          dim {
            size: 28
          }
          dim {
            size: 1
          }
        }
        shape {
          dim {
            size: 256
          }
        }
      }
    }
  }
  attr {
    key: "output_types"
    value {
      list {
        type: DT_UINT8
        type: DT_INT64
      }
    }
  }
  attr {
    key: "parallel_copy"
    value {
      b: false
    }
  }
  experimental_debug_info {
  }
}
node {
  name: "num_parallel_calls_4"
  op: "Const"
  device: "/device:CPU:0"
  attr {
    key: "_output_shapes"
    value {
      list {
        shape {
        }
      }
    }
  }
  attr {
    key: "dtype"
    value {
      type: DT_INT32
    }
  }
  attr {
    key: "value"
    value {
      tensor {
        dtype: DT_INT32
        tensor_shape {
        }
        int_val: -1
      }
    }
  }
  experimental_debug_info {
  }
}
node {
  name: "ParallelMapDataset_2"
  op: "ParallelMapDataset"
  input: "BatchDatasetV2"
  input: "num_parallel_calls_4"
  device: "/device:CPU:0"
  attr {
    key: "Targuments"
    value {
      list {
      }
    }
  }
  attr {
    key: "_output_shapes"
    value {
      list {
        shape {
        }
      }
    }
  }
  attr {
    key: "f"
    value {
      func {
        name: "__inference_Dataset_map__parse_batch_samples_314"
      }
    }
  }
  attr {
    key: "output_shapes"
    value {
      list {
        shape {
          dim {
            size: 256
          }
          dim {
            size: 784
          }
        }
        shape {
          dim {
            size: 256
          }
        }
      }
    }
  }
  attr {
    key: "output_types"
    value {
      list {
        type: DT_HALF
        type: DT_INT32
      }
    }
  }
  attr {
    key: "preserve_cardinality"
    value {
      b: true
    }
  }
  attr {
    key: "sloppy"
    value {
      b: false
    }
  }
  attr {
    key: "use_inter_op_parallelism"
    value {
      b: true
    }
  }
  experimental_debug_info {
  }
}
node {
  name: "buffer_size_3"
  op: "Const"
  device: "/device:CPU:0"
  attr {
    key: "_output_shapes"
    value {
      list {
        shape {
        }
      }
    }
  }
  attr {
    key: "dtype"
    value {
      type: DT_INT64
    }
  }
  attr {
    key: "value"
    value {
      tensor {
        dtype: DT_INT64
        tensor_shape {
        }
        int64_val: -1
      }
    }
  }
  experimental_debug_info {
  }
}
node {
  name: "PrefetchDataset_2"
  op: "PrefetchDataset"
  input: "ParallelMapDataset_2"
  input: "buffer_size_3"
  device: "/device:CPU:0"
  attr {
    key: "_output_shapes"
    value {
      list {
        shape {
        }
      }
    }
  }
  attr {
    key: "legacy_autotune"
    value {
      b: true
    }
  }
  attr {
    key: "output_shapes"
    value {
      list {
        shape {
          dim {
            size: 256
          }
          dim {
            size: 784
          }
        }
        shape {
          dim {
            size: 256
          }
        }
      }
    }
  }
  attr {
    key: "output_types"
    value {
      list {
        type: DT_HALF
        type: DT_INT32
      }
    }
  }
  attr {
    key: "slack_period"
    value {
      i: 0
    }
  }
  experimental_debug_info {
  }
}
node {
  name: "optimizations"
  op: "Const"
  attr {
    key: "_output_shapes"
    value {
      list {
        shape {
          dim {
            size: 3
          }
        }
      }
    }
  }
  attr {
    key: "dtype"
    value {
      type: DT_STRING
    }
  }
  attr {
    key: "value"
    value {
      tensor {
        dtype: DT_STRING
        tensor_shape {
          dim {
            size: 3
          }
        }
        string_val: "map_and_batch_fusion"
        string_val: "noop_elimination"
        string_val: "shuffle_and_repeat_fusion"
      }
    }
  }
  experimental_debug_info {
  }
}
node {
  name: "OptimizeDataset"
  op: "OptimizeDataset"
  input: "PrefetchDataset_2"
  input: "optimizations"
  attr {
    key: "_output_shapes"
    value {
      list {
        shape {
        }
      }
    }
  }
  attr {
    key: "optimization_configs"
    value {
      list {
      }
    }
  }
  attr {
    key: "output_shapes"
    value {
      list {
        shape {
          dim {
            size: 256
          }
          dim {
            size: 784
          }
        }
        shape {
          dim {
            size: 256
          }
        }
      }
    }
  }
  attr {
    key: "output_types"
    value {
      list {
        type: DT_HALF
        type: DT_INT32
      }
    }
  }
  experimental_debug_info {
  }
}
node {
  name: "ModelDataset"
  op: "ModelDataset"
  input: "OptimizeDataset"
  attr {
    key: "_output_shapes"
    value {
      list {
        shape {
        }
      }
    }
  }
  attr {
    key: "algorithm"
    value {
      i: 0
    }
  }
  attr {
    key: "cpu_budget"
    value {
      i: 0
    }
  }
  attr {
    key: "output_shapes"
    value {
      list {
        shape {
          dim {
            size: 256
          }
          dim {
            size: 784
          }
        }
        shape {
          dim {
            size: 256
          }
        }
      }
    }
  }
  attr {
    key: "output_types"
    value {
      list {
        type: DT_HALF
        type: DT_INT32
      }
    }
  }
  experimental_debug_info {
  }
}
node {
  name: "IteratorV2"
  op: "IteratorV2"
  attr {
    key: "_output_shapes"
    value {
      list {
        shape {
        }
      }
    }
  }
  attr {
    key: "container"
    value {
      s: ""
    }
  }
  attr {
    key: "output_shapes"
    value {
      list {
        shape {
          dim {
            size: 256
          }
          dim {
            size: 784
          }
        }
        shape {
          dim {
            size: 256
          }
        }
      }
    }
  }
  attr {
    key: "output_types"
    value {
      list {
        type: DT_HALF
        type: DT_INT32
      }
    }
  }
  attr {
    key: "shared_name"
    value {
      s: ""
    }
  }
  experimental_debug_info {
  }
}
node {
  name: "MakeIterator"
  op: "MakeIterator"
  input: "ModelDataset"
  input: "IteratorV2"
  attr {
    key: "_class"
    value {
      list {
        s: "loc:@IteratorV2"
      }
    }
  }
  experimental_debug_info {
  }
}
node {
  name: "IteratorToStringHandle"
  op: "IteratorToStringHandle"
  input: "IteratorV2"
  attr {
    key: "_output_shapes"
    value {
      list {
        shape {
        }
      }
    }
  }
  experimental_debug_info {
  }
}
node {
  name: "IteratorGetNext"
  op: "IteratorGetNext"
  input: "IteratorV2"
  attr {
    key: "_output_shapes"
    value {
      list {
        shape {
          dim {
            size: 256
          }
          dim {
            size: 784
          }
        }
        shape {
          dim {
            size: 256
          }
        }
      }
    }
  }
  attr {
    key: "output_shapes"
    value {
      list {
        shape {
          dim {
            size: 256
          }
          dim {
            size: 784
          }
        }
        shape {
          dim {
            size: 256
          }
        }
      }
    }
  }
  attr {
    key: "output_types"
    value {
      list {
        type: DT_HALF
        type: DT_INT32
      }
    }
  }
  experimental_debug_info {
  }
}
node {
  name: "km_disable_scope_1/dense/kernel/Initializer/random_uniform/shape"
  op: "Const"
  attr {
    key: "_class"
    value {
      list {
        s: "loc:@km_disable_scope_1/dense/kernel"
      }
    }
  }
  attr {
    key: "_output_shapes"
    value {
      list {
        shape {
          dim {
            size: 2
          }
        }
      }
    }
  }
  attr {
    key: "dtype"
    value {
      type: DT_INT32
    }
  }
  attr {
    key: "value"
    value {
      tensor {
        dtype: DT_INT32
        tensor_shape {
          dim {
            size: 2
          }
        }
        tensor_content: "\020\003\000\000\364\001\000\000"
      }
    }
  }
  experimental_debug_info {
  }
}
node {
  name: "km_disable_scope_1/dense/kernel/Initializer/random_uniform/min"
  op: "Const"
  attr {
    key: "_class"
    value {
      list {
        s: "loc:@km_disable_scope_1/dense/kernel"
      }
    }
  }
  attr {
    key: "_output_shapes"
    value {
      list {
        shape {
        }
      }
    }
  }
  attr {
    key: "dtype"
    value {
      type: DT_FLOAT
    }
  }
  attr {
    key: "value"
    value {
      tensor {
        dtype: DT_FLOAT
        tensor_shape {
        }
        float_val: -0.06835859268903732
      }
    }
  }
  experimental_debug_info {
  }
}
node {
  name: "km_disable_scope_1/dense/kernel/Initializer/random_uniform/max"
  op: "Const"
  attr {
    key: "_class"
    value {
      list {
        s: "loc:@km_disable_scope_1/dense/kernel"
      }
    }
  }
  attr {
    key: "_output_shapes"
    value {
      list {
        shape {
        }
      }
    }
  }
  attr {
    key: "dtype"
    value {
      type: DT_FLOAT
    }
  }
  attr {
    key: "value"
    value {
      tensor {
        dtype: DT_FLOAT
        tensor_shape {
        }
        float_val: 0.06835859268903732
      }
    }
  }
  experimental_debug_info {
  }
}
node {
  name: "km_disable_scope_1/dense/kernel/Initializer/random_uniform/RandomUniform"
  op: "RandomUniform"
  input: "km_disable_scope_1/dense/kernel/Initializer/random_uniform/shape"
  attr {
    key: "T"
    value {
      type: DT_INT32
    }
  }
  attr {
    key: "_class"
    value {
      list {
        s: "loc:@km_disable_scope_1/dense/kernel"
      }
    }
  }
  attr {
    key: "_output_shapes"
    value {
      list {
        shape {
          dim {
            size: 784
          }
          dim {
            size: 500
          }
        }
      }
    }
  }
  attr {
    key: "dtype"
    value {
      type: DT_FLOAT
    }
  }
  attr {
    key: "seed"
    value {
      i: 0
    }
  }
  attr {
    key: "seed2"
    value {
      i: 0
    }
  }
  experimental_debug_info {
  }
}
node {
  name: "km_disable_scope_1/dense/kernel/Initializer/random_uniform/sub"
  op: "Sub"
  input: "km_disable_scope_1/dense/kernel/Initializer/random_uniform/max"
  input: "km_disable_scope_1/dense/kernel/Initializer/random_uniform/min"
  attr {
    key: "T"
    value {
      type: DT_FLOAT
    }
  }
  attr {
    key: "_class"
    value {
      list {
        s: "loc:@km_disable_scope_1/dense/kernel"
      }
    }
  }
  attr {
    key: "_output_shapes"
    value {
      list {
        shape {
        }
      }
    }
  }
  experimental_debug_info {
  }
}
node {
  name: "km_disable_scope_1/dense/kernel/Initializer/random_uniform/mul"
  op: "Mul"
  input: "km_disable_scope_1/dense/kernel/Initializer/random_uniform/RandomUniform"
  input: "km_disable_scope_1/dense/kernel/Initializer/random_uniform/sub"
  attr {
    key: "T"
    value {
      type: DT_FLOAT
    }
  }
  attr {
    key: "_class"
    value {
      list {
        s: "loc:@km_disable_scope_1/dense/kernel"
      }
    }
  }
  attr {
    key: "_output_shapes"
    value {
      list {
        shape {
          dim {
            size: 784
          }
          dim {
            size: 500
          }
        }
      }
    }
  }
  experimental_debug_info {
  }
}
node {
  name: "km_disable_scope_1/dense/kernel/Initializer/random_uniform"
  op: "Add"
  input: "km_disable_scope_1/dense/kernel/Initializer/random_uniform/mul"
  input: "km_disable_scope_1/dense/kernel/Initializer/random_uniform/min"
  attr {
    key: "T"
    value {
      type: DT_FLOAT
    }
  }
  attr {
    key: "_class"
    value {
      list {
        s: "loc:@km_disable_scope_1/dense/kernel"
      }
    }
  }
  attr {
    key: "_output_shapes"
    value {
      list {
        shape {
          dim {
            size: 784
          }
          dim {
            size: 500
          }
        }
      }
    }
  }
  experimental_debug_info {
  }
}
node {
  name: "km_disable_scope_1/dense/kernel"
  op: "VarHandleOp"
  attr {
    key: "_class"
    value {
      list {
        s: "loc:@km_disable_scope_1/dense/kernel"
      }
    }
  }
  attr {
    key: "_output_shapes"
    value {
      list {
        shape {
        }
      }
    }
  }
  attr {
    key: "container"
    value {
      s: ""
    }
  }
  attr {
    key: "dtype"
    value {
      type: DT_FLOAT
    }
  }
  attr {
    key: "shape"
    value {
      shape {
        dim {
          size: 784
        }
        dim {
          size: 500
        }
      }
    }
  }
  attr {
    key: "shared_name"
    value {
      s: "km_disable_scope_1/dense/kernel"
    }
  }
  experimental_debug_info {
  }
}
node {
  name: "km_disable_scope_1/dense/kernel/IsInitialized/VarIsInitializedOp"
  op: "VarIsInitializedOp"
  input: "km_disable_scope_1/dense/kernel"
  attr {
    key: "_output_shapes"
    value {
      list {
        shape {
        }
      }
    }
  }
  experimental_debug_info {
  }
}
node {
  name: "km_disable_scope_1/dense/kernel/Assign"
  op: "AssignVariableOp"
  input: "km_disable_scope_1/dense/kernel"
  input: "km_disable_scope_1/dense/kernel/Initializer/random_uniform"
  attr {
    key: "dtype"
    value {
      type: DT_FLOAT
    }
  }
  experimental_debug_info {
  }
}
node {
  name: "km_disable_scope_1/dense/kernel/Read/ReadVariableOp"
  op: "ReadVariableOp"
  input: "km_disable_scope_1/dense/kernel"
  attr {
    key: "_output_shapes"
    value {
      list {
        shape {
          dim {
            size: 784
          }
          dim {
            size: 500
          }
        }
      }
    }
  }
  attr {
    key: "dtype"
    value {
      type: DT_FLOAT
    }
  }
  experimental_debug_info {
  }
}
node {
  name: "km_disable_scope_1/dense/bias/Initializer/zeros"
  op: "Const"
  attr {
    key: "_class"
    value {
      list {
        s: "loc:@km_disable_scope_1/dense/bias"
      }
    }
  }
  attr {
    key: "_output_shapes"
    value {
      list {
        shape {
          dim {
            size: 500
          }
        }
      }
    }
  }
  attr {
    key: "dtype"
    value {
      type: DT_FLOAT
    }
  }
  attr {
    key: "value"
    value {
      tensor {
        dtype: DT_FLOAT
        tensor_shape {
          dim {
            size: 500
          }
        }
        float_val: 0.0
      }
    }
  }
  experimental_debug_info {
  }
}
node {
  name: "km_disable_scope_1/dense/bias"
  op: "VarHandleOp"
  attr {
    key: "_class"
    value {
      list {
        s: "loc:@km_disable_scope_1/dense/bias"
      }
    }
  }
  attr {
    key: "_output_shapes"
    value {
      list {
        shape {
        }
      }
    }
  }
  attr {
    key: "container"
    value {
      s: ""
    }
  }
  attr {
    key: "dtype"
    value {
      type: DT_FLOAT
    }
  }
  attr {
    key: "shape"
    value {
      shape {
        dim {
          size: 500
        }
      }
    }
  }
  attr {
    key: "shared_name"
    value {
      s: "km_disable_scope_1/dense/bias"
    }
  }
  experimental_debug_info {
  }
}
node {
  name: "km_disable_scope_1/dense/bias/IsInitialized/VarIsInitializedOp"
  op: "VarIsInitializedOp"
  input: "km_disable_scope_1/dense/bias"
  attr {
    key: "_output_shapes"
    value {
      list {
        shape {
        }
      }
    }
  }
  experimental_debug_info {
  }
}
node {
  name: "km_disable_scope_1/dense/bias/Assign"
  op: "AssignVariableOp"
  input: "km_disable_scope_1/dense/bias"
  input: "km_disable_scope_1/dense/bias/Initializer/zeros"
  attr {
    key: "dtype"
    value {
      type: DT_FLOAT
    }
  }
  experimental_debug_info {
  }
}
node {
  name: "km_disable_scope_1/dense/bias/Read/ReadVariableOp"
  op: "ReadVariableOp"
  input: "km_disable_scope_1/dense/bias"
  attr {
    key: "_output_shapes"
    value {
      list {
        shape {
          dim {
            size: 500
          }
        }
      }
    }
  }
  attr {
    key: "dtype"
    value {
      type: DT_FLOAT
    }
  }
  experimental_debug_info {
  }
}
node {
  name: "km_disable_scope_1/dense/MatMul/ReadVariableOp"
  op: "ReadVariableOp"
  input: "km_disable_scope_1/dense/kernel"
  attr {
    key: "_output_shapes"
    value {
      list {
        shape {
          dim {
            size: 784
          }
          dim {
            size: 500
          }
        }
      }
    }
  }
  attr {
    key: "dtype"
    value {
      type: DT_FLOAT
    }
  }
  experimental_debug_info {
  }
}
node {
  name: "km_disable_scope_1/dense/MatMul/Cast"
  op: "Cast"
  input: "km_disable_scope_1/dense/MatMul/ReadVariableOp"
  attr {
    key: "DstT"
    value {
      type: DT_HALF
    }
  }
  attr {
    key: "SrcT"
    value {
      type: DT_FLOAT
    }
  }
  attr {
    key: "Truncate"
    value {
      b: false
    }
  }
  attr {
    key: "_output_shapes"
    value {
      list {
        shape {
          dim {
            size: 784
          }
          dim {
            size: 500
          }
        }
      }
    }
  }
  experimental_debug_info {
  }
}
node {
  name: "km_disable_scope_1/dense/MatMul"
  op: "MatMul"
  input: "IteratorGetNext"
  input: "km_disable_scope_1/dense/MatMul/Cast"
  attr {
    key: "T"
    value {
      type: DT_HALF
    }
  }
  attr {
    key: "_output_shapes"
    value {
      list {
        shape {
          dim {
            size: 256
          }
          dim {
            size: 500
          }
        }
      }
    }
  }
  attr {
    key: "transpose_a"
    value {
      b: false
    }
  }
  attr {
    key: "transpose_b"
    value {
      b: false
    }
  }
  experimental_debug_info {
  }
}
node {
  name: "km_disable_scope_1/dense/BiasAdd/ReadVariableOp"
  op: "ReadVariableOp"
  input: "km_disable_scope_1/dense/bias"
  attr {
    key: "_output_shapes"
    value {
      list {
        shape {
          dim {
            size: 500
          }
        }
      }
    }
  }
  attr {
    key: "dtype"
    value {
      type: DT_FLOAT
    }
  }
  experimental_debug_info {
  }
}
node {
  name: "km_disable_scope_1/dense/BiasAdd/Cast"
  op: "Cast"
  input: "km_disable_scope_1/dense/BiasAdd/ReadVariableOp"
  attr {
    key: "DstT"
    value {
      type: DT_HALF
    }
  }
  attr {
    key: "SrcT"
    value {
      type: DT_FLOAT
    }
  }
  attr {
    key: "Truncate"
    value {
      b: false
    }
  }
  attr {
    key: "_output_shapes"
    value {
      list {
        shape {
          dim {
            size: 500
          }
        }
      }
    }
  }
  experimental_debug_info {
  }
}
node {
  name: "km_disable_scope_1/dense/BiasAdd"
  op: "BiasAdd"
  input: "km_disable_scope_1/dense/MatMul"
  input: "km_disable_scope_1/dense/BiasAdd/Cast"
  attr {
    key: "T"
    value {
      type: DT_HALF
    }
  }
  attr {
    key: "_output_shapes"
    value {
      list {
        shape {
          dim {
            size: 256
          }
          dim {
            size: 500
          }
        }
      }
    }
  }
  attr {
    key: "data_format"
    value {
      s: "NHWC"
    }
  }
  experimental_debug_info {
  }
}
node {
  name: "activation/Relu"
  op: "Relu"
  input: "km_disable_scope_1/dense/BiasAdd"
  attr {
    key: "T"
    value {
      type: DT_HALF
    }
  }
  attr {
    key: "_output_shapes"
    value {
      list {
        shape {
          dim {
            size: 256
          }
          dim {
            size: 500
          }
        }
      }
    }
  }
  experimental_debug_info {
  }
}
node {
  name: "dropout/dropout/Const"
  op: "Const"
  attr {
    key: "_output_shapes"
    value {
      list {
        shape {
        }
      }
    }
  }
  attr {
    key: "dtype"
    value {
      type: DT_HALF
    }
  }
  attr {
    key: "value"
    value {
      tensor {
        dtype: DT_HALF
        tensor_shape {
        }
        half_val: 15616
      }
    }
  }
  experimental_debug_info {
  }
}
node {
  name: "dropout/dropout/Mul"
  op: "Mul"
  input: "activation/Relu"
  input: "dropout/dropout/Const"
  attr {
    key: "T"
    value {
      type: DT_HALF
    }
  }
  attr {
    key: "_output_shapes"
    value {
      list {
        shape {
          dim {
            size: 256
          }
          dim {
            size: 500
          }
        }
      }
    }
  }
  experimental_debug_info {
  }
}
node {
  name: "dropout/dropout/Shape"
  op: "Const"
  attr {
    key: "_output_shapes"
    value {
      list {
        shape {
          dim {
            size: 2
          }
        }
      }
    }
  }
  attr {
    key: "dtype"
    value {
      type: DT_INT32
    }
  }
  attr {
    key: "value"
    value {
      tensor {
        dtype: DT_INT32
        tensor_shape {
          dim {
            size: 2
          }
        }
        tensor_content: "\000\001\000\000\364\001\000\000"
      }
    }
  }
  experimental_debug_info {
  }
}
node {
  name: "dropout/dropout/random_uniform/RandomUniform"
  op: "RandomUniform"
  input: "dropout/dropout/Shape"
  attr {
    key: "T"
    value {
      type: DT_INT32
    }
  }
  attr {
    key: "_output_shapes"
    value {
      list {
        shape {
          dim {
            size: 256
          }
          dim {
            size: 500
          }
        }
      }
    }
  }
  attr {
    key: "dtype"
    value {
      type: DT_HALF
    }
  }
  attr {
    key: "seed"
    value {
      i: 0
    }
  }
  attr {
    key: "seed2"
    value {
      i: 0
    }
  }
  experimental_debug_info {
  }
}
node {
  name: "dropout/dropout/GreaterEqual/y"
  op: "Const"
  attr {
    key: "_output_shapes"
    value {
      list {
        shape {
        }
      }
    }
  }
  attr {
    key: "dtype"
    value {
      type: DT_HALF
    }
  }
  attr {
    key: "value"
    value {
      tensor {
        dtype: DT_HALF
        tensor_shape {
        }
        half_val: 12902
      }
    }
  }
  experimental_debug_info {
  }
}
node {
  name: "dropout/dropout/GreaterEqual"
  op: "GreaterEqual"
  input: "dropout/dropout/random_uniform/RandomUniform"
  input: "dropout/dropout/GreaterEqual/y"
  attr {
    key: "T"
    value {
      type: DT_HALF
    }
  }
  attr {
    key: "_output_shapes"
    value {
      list {
        shape {
          dim {
            size: 256
          }
          dim {
            size: 500
          }
        }
      }
    }
  }
  experimental_debug_info {
  }
}
node {
  name: "dropout/dropout/Cast"
  op: "Cast"
  input: "dropout/dropout/GreaterEqual"
  attr {
    key: "DstT"
    value {
      type: DT_HALF
    }
  }
  attr {
    key: "SrcT"
    value {
      type: DT_BOOL
    }
  }
  attr {
    key: "Truncate"
    value {
      b: false
    }
  }
  attr {
    key: "_output_shapes"
    value {
      list {
        shape {
          dim {
            size: 256
          }
          dim {
            size: 500
          }
        }
      }
    }
  }
  experimental_debug_info {
  }
}
node {
  name: "dropout/dropout/Mul_1"
  op: "Mul"
  input: "dropout/dropout/Mul"
  input: "dropout/dropout/Cast"
  attr {
    key: "T"
    value {
      type: DT_HALF
    }
  }
  attr {
    key: "_output_shapes"
    value {
      list {
        shape {
          dim {
            size: 256
          }
          dim {
            size: 500
          }
        }
      }
    }
  }
  experimental_debug_info {
  }
}
node {
  name: "km_disable_scope_3/dense_1/kernel/Initializer/random_uniform/shape"
  op: "Const"
  attr {
    key: "_class"
    value {
      list {
        s: "loc:@km_disable_scope_3/dense_1/kernel"
      }
    }
  }
  attr {
    key: "_output_shapes"
    value {
      list {
        shape {
          dim {
            size: 2
          }
        }
      }
    }
  }
  attr {
    key: "dtype"
    value {
      type: DT_INT32
    }
  }
  attr {
    key: "value"
    value {
      tensor {
        dtype: DT_INT32
        tensor_shape {
          dim {
            size: 2
          }
        }
        tensor_content: "\364\001\000\000,\001\000\000"
      }
    }
  }
  experimental_debug_info {
  }
}
node {
  name: "km_disable_scope_3/dense_1/kernel/Initializer/random_uniform/min"
  op: "Const"
  attr {
    key: "_class"
    value {
      list {
        s: "loc:@km_disable_scope_3/dense_1/kernel"
      }
    }
  }
  attr {
    key: "_output_shapes"
    value {
      list {
        shape {
        }
      }
    }
  }
  attr {
    key: "dtype"
    value {
      type: DT_FLOAT
    }
  }
  attr {
    key: "value"
    value {
      tensor {
        dtype: DT_FLOAT
        tensor_shape {
        }
        float_val: -0.08660253882408142
      }
    }
  }
  experimental_debug_info {
  }
}
node {
  name: "km_disable_scope_3/dense_1/kernel/Initializer/random_uniform/max"
  op: "Const"
  attr {
    key: "_class"
    value {
      list {
        s: "loc:@km_disable_scope_3/dense_1/kernel"
      }
    }
  }
  attr {
    key: "_output_shapes"
    value {
      list {
        shape {
        }
      }
    }
  }
  attr {
    key: "dtype"
    value {
      type: DT_FLOAT
    }
  }
  attr {
    key: "value"
    value {
      tensor {
        dtype: DT_FLOAT
        tensor_shape {
        }
        float_val: 0.08660253882408142
      }
    }
  }
  experimental_debug_info {
  }
}
node {
  name: "km_disable_scope_3/dense_1/kernel/Initializer/random_uniform/RandomUniform"
  op: "RandomUniform"
  input: "km_disable_scope_3/dense_1/kernel/Initializer/random_uniform/shape"
  attr {
    key: "T"
    value {
      type: DT_INT32
    }
  }
  attr {
    key: "_class"
    value {
      list {
        s: "loc:@km_disable_scope_3/dense_1/kernel"
      }
    }
  }
  attr {
    key: "_output_shapes"
    value {
      list {
        shape {
          dim {
            size: 500
          }
          dim {
            size: 300
          }
        }
      }
    }
  }
  attr {
    key: "dtype"
    value {
      type: DT_FLOAT
    }
  }
  attr {
    key: "seed"
    value {
      i: 0
    }
  }
  attr {
    key: "seed2"
    value {
      i: 0
    }
  }
  experimental_debug_info {
  }
}
node {
  name: "km_disable_scope_3/dense_1/kernel/Initializer/random_uniform/sub"
  op: "Sub"
  input: "km_disable_scope_3/dense_1/kernel/Initializer/random_uniform/max"
  input: "km_disable_scope_3/dense_1/kernel/Initializer/random_uniform/min"
  attr {
    key: "T"
    value {
      type: DT_FLOAT
    }
  }
  attr {
    key: "_class"
    value {
      list {
        s: "loc:@km_disable_scope_3/dense_1/kernel"
      }
    }
  }
  attr {
    key: "_output_shapes"
    value {
      list {
        shape {
        }
      }
    }
  }
  experimental_debug_info {
  }
}
node {
  name: "km_disable_scope_3/dense_1/kernel/Initializer/random_uniform/mul"
  op: "Mul"
  input: "km_disable_scope_3/dense_1/kernel/Initializer/random_uniform/RandomUniform"
  input: "km_disable_scope_3/dense_1/kernel/Initializer/random_uniform/sub"
  attr {
    key: "T"
    value {
      type: DT_FLOAT
    }
  }
  attr {
    key: "_class"
    value {
      list {
        s: "loc:@km_disable_scope_3/dense_1/kernel"
      }
    }
  }
  attr {
    key: "_output_shapes"
    value {
      list {
        shape {
          dim {
            size: 500
          }
          dim {
            size: 300
          }
        }
      }
    }
  }
  experimental_debug_info {
  }
}
node {
  name: "km_disable_scope_3/dense_1/kernel/Initializer/random_uniform"
  op: "Add"
  input: "km_disable_scope_3/dense_1/kernel/Initializer/random_uniform/mul"
  input: "km_disable_scope_3/dense_1/kernel/Initializer/random_uniform/min"
  attr {
    key: "T"
    value {
      type: DT_FLOAT
    }
  }
  attr {
    key: "_class"
    value {
      list {
        s: "loc:@km_disable_scope_3/dense_1/kernel"
      }
    }
  }
  attr {
    key: "_output_shapes"
    value {
      list {
        shape {
          dim {
            size: 500
          }
          dim {
            size: 300
          }
        }
      }
    }
  }
  experimental_debug_info {
  }
}
node {
  name: "km_disable_scope_3/dense_1/kernel"
  op: "VarHandleOp"
  attr {
    key: "_class"
    value {
      list {
        s: "loc:@km_disable_scope_3/dense_1/kernel"
      }
    }
  }
  attr {
    key: "_output_shapes"
    value {
      list {
        shape {
        }
      }
    }
  }
  attr {
    key: "container"
    value {
      s: ""
    }
  }
  attr {
    key: "dtype"
    value {
      type: DT_FLOAT
    }
  }
  attr {
    key: "shape"
    value {
      shape {
        dim {
          size: 500
        }
        dim {
          size: 300
        }
      }
    }
  }
  attr {
    key: "shared_name"
    value {
      s: "km_disable_scope_3/dense_1/kernel"
    }
  }
  experimental_debug_info {
  }
}
node {
  name: "km_disable_scope_3/dense_1/kernel/IsInitialized/VarIsInitializedOp"
  op: "VarIsInitializedOp"
  input: "km_disable_scope_3/dense_1/kernel"
  attr {
    key: "_output_shapes"
    value {
      list {
        shape {
        }
      }
    }
  }
  experimental_debug_info {
  }
}
node {
  name: "km_disable_scope_3/dense_1/kernel/Assign"
  op: "AssignVariableOp"
  input: "km_disable_scope_3/dense_1/kernel"
  input: "km_disable_scope_3/dense_1/kernel/Initializer/random_uniform"
  attr {
    key: "dtype"
    value {
      type: DT_FLOAT
    }
  }
  experimental_debug_info {
  }
}
node {
  name: "km_disable_scope_3/dense_1/kernel/Read/ReadVariableOp"
  op: "ReadVariableOp"
  input: "km_disable_scope_3/dense_1/kernel"
  attr {
    key: "_output_shapes"
    value {
      list {
        shape {
          dim {
            size: 500
          }
          dim {
            size: 300
          }
        }
      }
    }
  }
  attr {
    key: "dtype"
    value {
      type: DT_FLOAT
    }
  }
  experimental_debug_info {
  }
}
node {
  name: "km_disable_scope_3/dense_1/bias/Initializer/zeros"
  op: "Const"
  attr {
    key: "_class"
    value {
      list {
        s: "loc:@km_disable_scope_3/dense_1/bias"
      }
    }
  }
  attr {
    key: "_output_shapes"
    value {
      list {
        shape {
          dim {
            size: 300
          }
        }
      }
    }
  }
  attr {
    key: "dtype"
    value {
      type: DT_FLOAT
    }
  }
  attr {
    key: "value"
    value {
      tensor {
        dtype: DT_FLOAT
        tensor_shape {
          dim {
            size: 300
          }
        }
        float_val: 0.0
      }
    }
  }
  experimental_debug_info {
  }
}
node {
  name: "km_disable_scope_3/dense_1/bias"
  op: "VarHandleOp"
  attr {
    key: "_class"
    value {
      list {
        s: "loc:@km_disable_scope_3/dense_1/bias"
      }
    }
  }
  attr {
    key: "_output_shapes"
    value {
      list {
        shape {
        }
      }
    }
  }
  attr {
    key: "container"
    value {
      s: ""
    }
  }
  attr {
    key: "dtype"
    value {
      type: DT_FLOAT
    }
  }
  attr {
    key: "shape"
    value {
      shape {
        dim {
          size: 300
        }
      }
    }
  }
  attr {
    key: "shared_name"
    value {
      s: "km_disable_scope_3/dense_1/bias"
    }
  }
  experimental_debug_info {
  }
}
node {
  name: "km_disable_scope_3/dense_1/bias/IsInitialized/VarIsInitializedOp"
  op: "VarIsInitializedOp"
  input: "km_disable_scope_3/dense_1/bias"
  attr {
    key: "_output_shapes"
    value {
      list {
        shape {
        }
      }
    }
  }
  experimental_debug_info {
  }
}
node {
  name: "km_disable_scope_3/dense_1/bias/Assign"
  op: "AssignVariableOp"
  input: "km_disable_scope_3/dense_1/bias"
  input: "km_disable_scope_3/dense_1/bias/Initializer/zeros"
  attr {
    key: "dtype"
    value {
      type: DT_FLOAT
    }
  }
  experimental_debug_info {
  }
}
node {
  name: "km_disable_scope_3/dense_1/bias/Read/ReadVariableOp"
  op: "ReadVariableOp"
  input: "km_disable_scope_3/dense_1/bias"
  attr {
    key: "_output_shapes"
    value {
      list {
        shape {
          dim {
            size: 300
          }
        }
      }
    }
  }
  attr {
    key: "dtype"
    value {
      type: DT_FLOAT
    }
  }
  experimental_debug_info {
  }
}
node {
  name: "km_disable_scope_3/dense_1/MatMul/ReadVariableOp"
  op: "ReadVariableOp"
  input: "km_disable_scope_3/dense_1/kernel"
  attr {
    key: "_output_shapes"
    value {
      list {
        shape {
          dim {
            size: 500
          }
          dim {
            size: 300
          }
        }
      }
    }
  }
  attr {
    key: "dtype"
    value {
      type: DT_FLOAT
    }
  }
  experimental_debug_info {
  }
}
node {
  name: "km_disable_scope_3/dense_1/MatMul/Cast"
  op: "Cast"
  input: "km_disable_scope_3/dense_1/MatMul/ReadVariableOp"
  attr {
    key: "DstT"
    value {
      type: DT_HALF
    }
  }
  attr {
    key: "SrcT"
    value {
      type: DT_FLOAT
    }
  }
  attr {
    key: "Truncate"
    value {
      b: false
    }
  }
  attr {
    key: "_output_shapes"
    value {
      list {
        shape {
          dim {
            size: 500
          }
          dim {
            size: 300
          }
        }
      }
    }
  }
  experimental_debug_info {
  }
}
node {
  name: "km_disable_scope_3/dense_1/MatMul"
  op: "MatMul"
  input: "dropout/dropout/Mul_1"
  input: "km_disable_scope_3/dense_1/MatMul/Cast"
  attr {
    key: "T"
    value {
      type: DT_HALF
    }
  }
  attr {
    key: "_output_shapes"
    value {
      list {
        shape {
          dim {
            size: 256
          }
          dim {
            size: 300
          }
        }
      }
    }
  }
  attr {
    key: "transpose_a"
    value {
      b: false
    }
  }
  attr {
    key: "transpose_b"
    value {
      b: false
    }
  }
  experimental_debug_info {
  }
}
node {
  name: "km_disable_scope_3/dense_1/BiasAdd/ReadVariableOp"
  op: "ReadVariableOp"
  input: "km_disable_scope_3/dense_1/bias"
  attr {
    key: "_output_shapes"
    value {
      list {
        shape {
          dim {
            size: 300
          }
        }
      }
    }
  }
  attr {
    key: "dtype"
    value {
      type: DT_FLOAT
    }
  }
  experimental_debug_info {
  }
}
node {
  name: "km_disable_scope_3/dense_1/BiasAdd/Cast"
  op: "Cast"
  input: "km_disable_scope_3/dense_1/BiasAdd/ReadVariableOp"
  attr {
    key: "DstT"
    value {
      type: DT_HALF
    }
  }
  attr {
    key: "SrcT"
    value {
      type: DT_FLOAT
    }
  }
  attr {
    key: "Truncate"
    value {
      b: false
    }
  }
  attr {
    key: "_output_shapes"
    value {
      list {
        shape {
          dim {
            size: 300
          }
        }
      }
    }
  }
  experimental_debug_info {
  }
}
node {
  name: "km_disable_scope_3/dense_1/BiasAdd"
  op: "BiasAdd"
  input: "km_disable_scope_3/dense_1/MatMul"
  input: "km_disable_scope_3/dense_1/BiasAdd/Cast"
  attr {
    key: "T"
    value {
      type: DT_HALF
    }
  }
  attr {
    key: "_output_shapes"
    value {
      list {
        shape {
          dim {
            size: 256
          }
          dim {
            size: 300
          }
        }
      }
    }
  }
  attr {
    key: "data_format"
    value {
      s: "NHWC"
    }
  }
  experimental_debug_info {
  }
}
node {
  name: "activation_1/Relu"
  op: "Relu"
  input: "km_disable_scope_3/dense_1/BiasAdd"
  attr {
    key: "T"
    value {
      type: DT_HALF
    }
  }
  attr {
    key: "_output_shapes"
    value {
      list {
        shape {
          dim {
            size: 256
          }
          dim {
            size: 300
          }
        }
      }
    }
  }
  experimental_debug_info {
  }
}
node {
  name: "dropout_1/dropout/Const"
  op: "Const"
  attr {
    key: "_output_shapes"
    value {
      list {
        shape {
        }
      }
    }
  }
  attr {
    key: "dtype"
    value {
      type: DT_HALF
    }
  }
  attr {
    key: "value"
    value {
      tensor {
        dtype: DT_HALF
        tensor_shape {
        }
        half_val: 15616
      }
    }
  }
  experimental_debug_info {
  }
}
node {
  name: "dropout_1/dropout/Mul"
  op: "Mul"
  input: "activation_1/Relu"
  input: "dropout_1/dropout/Const"
  attr {
    key: "T"
    value {
      type: DT_HALF
    }
  }
  attr {
    key: "_output_shapes"
    value {
      list {
        shape {
          dim {
            size: 256
          }
          dim {
            size: 300
          }
        }
      }
    }
  }
  experimental_debug_info {
  }
}
node {
  name: "dropout_1/dropout/Shape"
  op: "Const"
  attr {
    key: "_output_shapes"
    value {
      list {
        shape {
          dim {
            size: 2
          }
        }
      }
    }
  }
  attr {
    key: "dtype"
    value {
      type: DT_INT32
    }
  }
  attr {
    key: "value"
    value {
      tensor {
        dtype: DT_INT32
        tensor_shape {
          dim {
            size: 2
          }
        }
        tensor_content: "\000\001\000\000,\001\000\000"
      }
    }
  }
  experimental_debug_info {
  }
}
node {
  name: "dropout_1/dropout/random_uniform/RandomUniform"
  op: "RandomUniform"
  input: "dropout_1/dropout/Shape"
  attr {
    key: "T"
    value {
      type: DT_INT32
    }
  }
  attr {
    key: "_output_shapes"
    value {
      list {
        shape {
          dim {
            size: 256
          }
          dim {
            size: 300
          }
        }
      }
    }
  }
  attr {
    key: "dtype"
    value {
      type: DT_HALF
    }
  }
  attr {
    key: "seed"
    value {
      i: 0
    }
  }
  attr {
    key: "seed2"
    value {
      i: 0
    }
  }
  experimental_debug_info {
  }
}
node {
  name: "dropout_1/dropout/GreaterEqual/y"
  op: "Const"
  attr {
    key: "_output_shapes"
    value {
      list {
        shape {
        }
      }
    }
  }
  attr {
    key: "dtype"
    value {
      type: DT_HALF
    }
  }
  attr {
    key: "value"
    value {
      tensor {
        dtype: DT_HALF
        tensor_shape {
        }
        half_val: 12902
      }
    }
  }
  experimental_debug_info {
  }
}
node {
  name: "dropout_1/dropout/GreaterEqual"
  op: "GreaterEqual"
  input: "dropout_1/dropout/random_uniform/RandomUniform"
  input: "dropout_1/dropout/GreaterEqual/y"
  attr {
    key: "T"
    value {
      type: DT_HALF
    }
  }
  attr {
    key: "_output_shapes"
    value {
      list {
        shape {
          dim {
            size: 256
          }
          dim {
            size: 300
          }
        }
      }
    }
  }
  experimental_debug_info {
  }
}
node {
  name: "dropout_1/dropout/Cast"
  op: "Cast"
  input: "dropout_1/dropout/GreaterEqual"
  attr {
    key: "DstT"
    value {
      type: DT_HALF
    }
  }
  attr {
    key: "SrcT"
    value {
      type: DT_BOOL
    }
  }
  attr {
    key: "Truncate"
    value {
      b: false
    }
  }
  attr {
    key: "_output_shapes"
    value {
      list {
        shape {
          dim {
            size: 256
          }
          dim {
            size: 300
          }
        }
      }
    }
  }
  experimental_debug_info {
  }
}
node {
  name: "dropout_1/dropout/Mul_1"
  op: "Mul"
  input: "dropout_1/dropout/Mul"
  input: "dropout_1/dropout/Cast"
  attr {
    key: "T"
    value {
      type: DT_HALF
    }
  }
  attr {
    key: "_output_shapes"
    value {
      list {
        shape {
          dim {
            size: 256
          }
          dim {
            size: 300
          }
        }
      }
    }
  }
  experimental_debug_info {
  }
}
node {
  name: "km_disable_scope_4/dense_2/kernel/Initializer/random_uniform/shape"
  op: "Const"
  attr {
    key: "_class"
    value {
      list {
        s: "loc:@km_disable_scope_4/dense_2/kernel"
      }
    }
  }
  attr {
    key: "_output_shapes"
    value {
      list {
        shape {
          dim {
            size: 2
          }
        }
      }
    }
  }
  attr {
    key: "dtype"
    value {
      type: DT_INT32
    }
  }
  attr {
    key: "value"
    value {
      tensor {
        dtype: DT_INT32
        tensor_shape {
          dim {
            size: 2
          }
        }
        tensor_content: ",\001\000\000\n\000\000\000"
      }
    }
  }
  experimental_debug_info {
  }
}
node {
  name: "km_disable_scope_4/dense_2/kernel/Initializer/random_uniform/min"
  op: "Const"
  attr {
    key: "_class"
    value {
      list {
        s: "loc:@km_disable_scope_4/dense_2/kernel"
      }
    }
  }
  attr {
    key: "_output_shapes"
    value {
      list {
        shape {
        }
      }
    }
  }
  attr {
    key: "dtype"
    value {
      type: DT_FLOAT
    }
  }
  attr {
    key: "value"
    value {
      tensor {
        dtype: DT_FLOAT
        tensor_shape {
        }
        float_val: -0.1391216665506363
      }
    }
  }
  experimental_debug_info {
  }
}
node {
  name: "km_disable_scope_4/dense_2/kernel/Initializer/random_uniform/max"
  op: "Const"
  attr {
    key: "_class"
    value {
      list {
        s: "loc:@km_disable_scope_4/dense_2/kernel"
      }
    }
  }
  attr {
    key: "_output_shapes"
    value {
      list {
        shape {
        }
      }
    }
  }
  attr {
    key: "dtype"
    value {
      type: DT_FLOAT
    }
  }
  attr {
    key: "value"
    value {
      tensor {
        dtype: DT_FLOAT
        tensor_shape {
        }
        float_val: 0.1391216665506363
      }
    }
  }
  experimental_debug_info {
  }
}
node {
  name: "km_disable_scope_4/dense_2/kernel/Initializer/random_uniform/RandomUniform"
  op: "RandomUniform"
  input: "km_disable_scope_4/dense_2/kernel/Initializer/random_uniform/shape"
  attr {
    key: "T"
    value {
      type: DT_INT32
    }
  }
  attr {
    key: "_class"
    value {
      list {
        s: "loc:@km_disable_scope_4/dense_2/kernel"
      }
    }
  }
  attr {
    key: "_output_shapes"
    value {
      list {
        shape {
          dim {
            size: 300
          }
          dim {
            size: 10
          }
        }
      }
    }
  }
  attr {
    key: "dtype"
    value {
      type: DT_FLOAT
    }
  }
  attr {
    key: "seed"
    value {
      i: 0
    }
  }
  attr {
    key: "seed2"
    value {
      i: 0
    }
  }
  experimental_debug_info {
  }
}
node {
  name: "km_disable_scope_4/dense_2/kernel/Initializer/random_uniform/sub"
  op: "Sub"
  input: "km_disable_scope_4/dense_2/kernel/Initializer/random_uniform/max"
  input: "km_disable_scope_4/dense_2/kernel/Initializer/random_uniform/min"
  attr {
    key: "T"
    value {
      type: DT_FLOAT
    }
  }
  attr {
    key: "_class"
    value {
      list {
        s: "loc:@km_disable_scope_4/dense_2/kernel"
      }
    }
  }
  attr {
    key: "_output_shapes"
    value {
      list {
        shape {
        }
      }
    }
  }
  experimental_debug_info {
  }
}
node {
  name: "km_disable_scope_4/dense_2/kernel/Initializer/random_uniform/mul"
  op: "Mul"
  input: "km_disable_scope_4/dense_2/kernel/Initializer/random_uniform/RandomUniform"
  input: "km_disable_scope_4/dense_2/kernel/Initializer/random_uniform/sub"
  attr {
    key: "T"
    value {
      type: DT_FLOAT
    }
  }
  attr {
    key: "_class"
    value {
      list {
        s: "loc:@km_disable_scope_4/dense_2/kernel"
      }
    }
  }
  attr {
    key: "_output_shapes"
    value {
      list {
        shape {
          dim {
            size: 300
          }
          dim {
            size: 10
          }
        }
      }
    }
  }
  experimental_debug_info {
  }
}
node {
  name: "km_disable_scope_4/dense_2/kernel/Initializer/random_uniform"
  op: "Add"
  input: "km_disable_scope_4/dense_2/kernel/Initializer/random_uniform/mul"
  input: "km_disable_scope_4/dense_2/kernel/Initializer/random_uniform/min"
  attr {
    key: "T"
    value {
      type: DT_FLOAT
    }
  }
  attr {
    key: "_class"
    value {
      list {
        s: "loc:@km_disable_scope_4/dense_2/kernel"
      }
    }
  }
  attr {
    key: "_output_shapes"
    value {
      list {
        shape {
          dim {
            size: 300
          }
          dim {
            size: 10
          }
        }
      }
    }
  }
  experimental_debug_info {
  }
}
node {
  name: "km_disable_scope_4/dense_2/kernel"
  op: "VarHandleOp"
  attr {
    key: "_class"
    value {
      list {
        s: "loc:@km_disable_scope_4/dense_2/kernel"
      }
    }
  }
  attr {
    key: "_output_shapes"
    value {
      list {
        shape {
        }
      }
    }
  }
  attr {
    key: "container"
    value {
      s: ""
    }
  }
  attr {
    key: "dtype"
    value {
      type: DT_FLOAT
    }
  }
  attr {
    key: "shape"
    value {
      shape {
        dim {
          size: 300
        }
        dim {
          size: 10
        }
      }
    }
  }
  attr {
    key: "shared_name"
    value {
      s: "km_disable_scope_4/dense_2/kernel"
    }
  }
  experimental_debug_info {
  }
}
node {
  name: "km_disable_scope_4/dense_2/kernel/IsInitialized/VarIsInitializedOp"
  op: "VarIsInitializedOp"
  input: "km_disable_scope_4/dense_2/kernel"
  attr {
    key: "_output_shapes"
    value {
      list {
        shape {
        }
      }
    }
  }
  experimental_debug_info {
  }
}
node {
  name: "km_disable_scope_4/dense_2/kernel/Assign"
  op: "AssignVariableOp"
  input: "km_disable_scope_4/dense_2/kernel"
  input: "km_disable_scope_4/dense_2/kernel/Initializer/random_uniform"
  attr {
    key: "dtype"
    value {
      type: DT_FLOAT
    }
  }
  experimental_debug_info {
  }
}
node {
  name: "km_disable_scope_4/dense_2/kernel/Read/ReadVariableOp"
  op: "ReadVariableOp"
  input: "km_disable_scope_4/dense_2/kernel"
  attr {
    key: "_output_shapes"
    value {
      list {
        shape {
          dim {
            size: 300
          }
          dim {
            size: 10
          }
        }
      }
    }
  }
  attr {
    key: "dtype"
    value {
      type: DT_FLOAT
    }
  }
  experimental_debug_info {
  }
}
node {
  name: "km_disable_scope_4/dense_2/bias/Initializer/zeros"
  op: "Const"
  attr {
    key: "_class"
    value {
      list {
        s: "loc:@km_disable_scope_4/dense_2/bias"
      }
    }
  }
  attr {
    key: "_output_shapes"
    value {
      list {
        shape {
          dim {
            size: 10
          }
        }
      }
    }
  }
  attr {
    key: "dtype"
    value {
      type: DT_FLOAT
    }
  }
  attr {
    key: "value"
    value {
      tensor {
        dtype: DT_FLOAT
        tensor_shape {
          dim {
            size: 10
          }
        }
        float_val: 0.0
      }
    }
  }
  experimental_debug_info {
  }
}
node {
  name: "km_disable_scope_4/dense_2/bias"
  op: "VarHandleOp"
  attr {
    key: "_class"
    value {
      list {
        s: "loc:@km_disable_scope_4/dense_2/bias"
      }
    }
  }
  attr {
    key: "_output_shapes"
    value {
      list {
        shape {
        }
      }
    }
  }
  attr {
    key: "container"
    value {
      s: ""
    }
  }
  attr {
    key: "dtype"
    value {
      type: DT_FLOAT
    }
  }
  attr {
    key: "shape"
    value {
      shape {
        dim {
          size: 10
        }
      }
    }
  }
  attr {
    key: "shared_name"
    value {
      s: "km_disable_scope_4/dense_2/bias"
    }
  }
  experimental_debug_info {
  }
}
node {
  name: "km_disable_scope_4/dense_2/bias/IsInitialized/VarIsInitializedOp"
  op: "VarIsInitializedOp"
  input: "km_disable_scope_4/dense_2/bias"
  attr {
    key: "_output_shapes"
    value {
      list {
        shape {
        }
      }
    }
  }
  experimental_debug_info {
  }
}
node {
  name: "km_disable_scope_4/dense_2/bias/Assign"
  op: "AssignVariableOp"
  input: "km_disable_scope_4/dense_2/bias"
  input: "km_disable_scope_4/dense_2/bias/Initializer/zeros"
  attr {
    key: "dtype"
    value {
      type: DT_FLOAT
    }
  }
  experimental_debug_info {
  }
}
node {
  name: "km_disable_scope_4/dense_2/bias/Read/ReadVariableOp"
  op: "ReadVariableOp"
  input: "km_disable_scope_4/dense_2/bias"
  attr {
    key: "_output_shapes"
    value {
      list {
        shape {
          dim {
            size: 10
          }
        }
      }
    }
  }
  attr {
    key: "dtype"
    value {
      type: DT_FLOAT
    }
  }
  experimental_debug_info {
  }
}
node {
  name: "km_disable_scope_4/dense_2/MatMul/ReadVariableOp"
  op: "ReadVariableOp"
  input: "km_disable_scope_4/dense_2/kernel"
  attr {
    key: "_output_shapes"
    value {
      list {
        shape {
          dim {
            size: 300
          }
          dim {
            size: 10
          }
        }
      }
    }
  }
  attr {
    key: "dtype"
    value {
      type: DT_FLOAT
    }
  }
  experimental_debug_info {
  }
}
node {
  name: "km_disable_scope_4/dense_2/MatMul/Cast"
  op: "Cast"
  input: "km_disable_scope_4/dense_2/MatMul/ReadVariableOp"
  attr {
    key: "DstT"
    value {
      type: DT_HALF
    }
  }
  attr {
    key: "SrcT"
    value {
      type: DT_FLOAT
    }
  }
  attr {
    key: "Truncate"
    value {
      b: false
    }
  }
  attr {
    key: "_output_shapes"
    value {
      list {
        shape {
          dim {
            size: 300
          }
          dim {
            size: 10
          }
        }
      }
    }
  }
  experimental_debug_info {
  }
}
node {
  name: "km_disable_scope_4/dense_2/MatMul"
  op: "MatMul"
  input: "dropout_1/dropout/Mul_1"
  input: "km_disable_scope_4/dense_2/MatMul/Cast"
  attr {
    key: "T"
    value {
      type: DT_HALF
    }
  }
  attr {
    key: "_output_shapes"
    value {
      list {
        shape {
          dim {
            size: 256
          }
          dim {
            size: 10
          }
        }
      }
    }
  }
  attr {
    key: "transpose_a"
    value {
      b: false
    }
  }
  attr {
    key: "transpose_b"
    value {
      b: false
    }
  }
  experimental_debug_info {
  }
}
node {
  name: "km_disable_scope_4/dense_2/BiasAdd/ReadVariableOp"
  op: "ReadVariableOp"
  input: "km_disable_scope_4/dense_2/bias"
  attr {
    key: "_output_shapes"
    value {
      list {
        shape {
          dim {
            size: 10
          }
        }
      }
    }
  }
  attr {
    key: "dtype"
    value {
      type: DT_FLOAT
    }
  }
  experimental_debug_info {
  }
}
node {
  name: "km_disable_scope_4/dense_2/BiasAdd/Cast"
  op: "Cast"
  input: "km_disable_scope_4/dense_2/BiasAdd/ReadVariableOp"
  attr {
    key: "DstT"
    value {
      type: DT_HALF
    }
  }
  attr {
    key: "SrcT"
    value {
      type: DT_FLOAT
    }
  }
  attr {
    key: "Truncate"
    value {
      b: false
    }
  }
  attr {
    key: "_output_shapes"
    value {
      list {
        shape {
          dim {
            size: 10
          }
        }
      }
    }
  }
  experimental_debug_info {
  }
}
node {
  name: "km_disable_scope_4/dense_2/BiasAdd"
  op: "BiasAdd"
  input: "km_disable_scope_4/dense_2/MatMul"
  input: "km_disable_scope_4/dense_2/BiasAdd/Cast"
  attr {
    key: "T"
    value {
      type: DT_HALF
    }
  }
  attr {
    key: "_output_shapes"
    value {
      list {
        shape {
          dim {
            size: 256
          }
          dim {
            size: 10
          }
        }
      }
    }
  }
  attr {
    key: "data_format"
    value {
      s: "NHWC"
    }
  }
  experimental_debug_info {
  }
}
node {
  name: "SparseSoftmaxCrossEntropyWithLogits/Cast"
  op: "Cast"
  input: "km_disable_scope_4/dense_2/BiasAdd"
  attr {
    key: "DstT"
    value {
      type: DT_FLOAT
    }
  }
  attr {
    key: "SrcT"
    value {
      type: DT_HALF
    }
  }
  attr {
    key: "Truncate"
    value {
      b: false
    }
  }
  attr {
    key: "_output_shapes"
    value {
      list {
        shape {
          dim {
            size: 256
          }
          dim {
            size: 10
          }
        }
      }
    }
  }
  experimental_debug_info {
  }
}
node {
  name: "SparseSoftmaxCrossEntropyWithLogits/Shape"
  op: "Const"
  attr {
    key: "_output_shapes"
    value {
      list {
        shape {
          dim {
            size: 1
          }
        }
      }
    }
  }
  attr {
    key: "dtype"
    value {
      type: DT_INT32
    }
  }
  attr {
    key: "value"
    value {
      tensor {
        dtype: DT_INT32
        tensor_shape {
          dim {
            size: 1
          }
        }
        int_val: 256
      }
    }
  }
  experimental_debug_info {
  }
}
node {
  name: "SparseSoftmaxCrossEntropyWithLogits/SparseSoftmaxCrossEntropyWithLogits"
  op: "SparseSoftmaxCrossEntropyWithLogits"
  input: "SparseSoftmaxCrossEntropyWithLogits/Cast"
  input: "IteratorGetNext:1"
  attr {
    key: "T"
    value {
      type: DT_FLOAT
    }
  }
  attr {
    key: "Tlabels"
    value {
      type: DT_INT32
    }
  }
  attr {
    key: "_output_shapes"
    value {
      list {
        shape {
          dim {
            size: 256
          }
        }
        shape {
          dim {
            size: 256
          }
          dim {
            size: 10
          }
        }
      }
    }
  }
  experimental_debug_info {
  }
}
node {
  name: "SparseSoftmaxCrossEntropyWithLogits/Cast_1"
  op: "Cast"
  input: "SparseSoftmaxCrossEntropyWithLogits/SparseSoftmaxCrossEntropyWithLogits"
  attr {
    key: "DstT"
    value {
      type: DT_HALF
    }
  }
  attr {
    key: "SrcT"
    value {
      type: DT_FLOAT
    }
  }
  attr {
    key: "Truncate"
    value {
      b: false
    }
  }
  attr {
    key: "_output_shapes"
    value {
      list {
        shape {
          dim {
            size: 256
          }
        }
      }
    }
  }
  experimental_debug_info {
  }
}
node {
  name: "Const"
  op: "Const"
  attr {
    key: "_output_shapes"
    value {
      list {
        shape {
          dim {
            size: 1
          }
        }
      }
    }
  }
  attr {
    key: "dtype"
    value {
      type: DT_INT32
    }
  }
  attr {
    key: "value"
    value {
      tensor {
        dtype: DT_INT32
        tensor_shape {
          dim {
            size: 1
          }
        }
        int_val: 0
      }
    }
  }
  experimental_debug_info {
  }
}
node {
  name: "Mean"
  op: "Mean"
  input: "SparseSoftmaxCrossEntropyWithLogits/Cast_1"
  input: "Const"
  attr {
    key: "T"
    value {
      type: DT_HALF
    }
  }
  attr {
    key: "Tidx"
    value {
      type: DT_INT32
    }
  }
  attr {
    key: "_output_shapes"
    value {
      list {
        shape {
        }
      }
    }
  }
  attr {
    key: "keep_dims"
    value {
      b: false
    }
  }
  experimental_debug_info {
  }
}
node {
  name: "loss/tags"
  op: "Const"
  attr {
    key: "_output_shapes"
    value {
      list {
        shape {
        }
      }
    }
  }
  attr {
    key: "dtype"
    value {
      type: DT_STRING
    }
  }
  attr {
    key: "value"
    value {
      tensor {
        dtype: DT_STRING
        tensor_shape {
        }
        string_val: "loss"
      }
    }
  }
  experimental_debug_info {
  }
}
node {
  name: "loss"
  op: "ScalarSummary"
  input: "loss/tags"
  input: "Mean"
  attr {
    key: "T"
    value {
      type: DT_HALF
    }
  }
  attr {
    key: "_output_shapes"
    value {
      list {
        shape {
        }
      }
    }
  }
  experimental_debug_info {
  }
}
node {
  name: "gradients/Shape"
  op: "Const"
  attr {
    key: "_output_shapes"
    value {
      list {
        shape {
          dim {
          }
        }
      }
    }
  }
  attr {
    key: "dtype"
    value {
      type: DT_INT32
    }
  }
  attr {
    key: "value"
    value {
      tensor {
        dtype: DT_INT32
        tensor_shape {
          dim {
          }
        }
      }
    }
  }
  experimental_debug_info {
  }
}
node {
  name: "gradients/grad_ys_0"
  op: "Const"
  attr {
    key: "_output_shapes"
    value {
      list {
        shape {
        }
      }
    }
  }
  attr {
    key: "dtype"
    value {
      type: DT_HALF
    }
  }
  attr {
    key: "value"
    value {
      tensor {
        dtype: DT_HALF
        tensor_shape {
        }
        half_val: 15360
      }
    }
  }
  experimental_debug_info {
  }
}
node {
  name: "gradients/Fill"
  op: "Fill"
  input: "gradients/Shape"
  input: "gradients/grad_ys_0"
  attr {
    key: "T"
    value {
      type: DT_HALF
    }
  }
  attr {
    key: "_output_shapes"
    value {
      list {
        shape {
        }
      }
    }
  }
  attr {
    key: "index_type"
    value {
      type: DT_INT32
    }
  }
  experimental_debug_info {
  }
}
node {
  name: "gradients/Mean_grad/Reshape/shape"
  op: "Const"
  attr {
    key: "_output_shapes"
    value {
      list {
        shape {
          dim {
            size: 1
          }
        }
      }
    }
  }
  attr {
    key: "dtype"
    value {
      type: DT_INT32
    }
  }
  attr {
    key: "value"
    value {
      tensor {
        dtype: DT_INT32
        tensor_shape {
          dim {
            size: 1
          }
        }
        int_val: 1
      }
    }
  }
  experimental_debug_info {
  }
}
node {
  name: "gradients/Mean_grad/Reshape"
  op: "Reshape"
  input: "gradients/Fill"
  input: "gradients/Mean_grad/Reshape/shape"
  attr {
    key: "T"
    value {
      type: DT_HALF
    }
  }
  attr {
    key: "Tshape"
    value {
      type: DT_INT32
    }
  }
  attr {
    key: "_output_shapes"
    value {
      list {
        shape {
          dim {
            size: 1
          }
        }
      }
    }
  }
  experimental_debug_info {
  }
}
node {
  name: "gradients/Mean_grad/Const"
  op: "Const"
  attr {
    key: "_output_shapes"
    value {
      list {
        shape {
          dim {
            size: 1
          }
        }
      }
    }
  }
  attr {
    key: "dtype"
    value {
      type: DT_INT32
    }
  }
  attr {
    key: "value"
    value {
      tensor {
        dtype: DT_INT32
        tensor_shape {
          dim {
            size: 1
          }
        }
        int_val: 256
      }
    }
  }
  experimental_debug_info {
  }
}
node {
  name: "gradients/Mean_grad/Tile"
  op: "Tile"
  input: "gradients/Mean_grad/Reshape"
  input: "gradients/Mean_grad/Const"
  attr {
    key: "T"
    value {
      type: DT_HALF
    }
  }
  attr {
    key: "Tmultiples"
    value {
      type: DT_INT32
    }
  }
  attr {
    key: "_output_shapes"
    value {
      list {
        shape {
          dim {
            size: 256
          }
        }
      }
    }
  }
  experimental_debug_info {
  }
}
node {
  name: "gradients/Mean_grad/Const_1"
  op: "Const"
  attr {
    key: "_output_shapes"
    value {
      list {
        shape {
        }
      }
    }
  }
  attr {
    key: "dtype"
    value {
      type: DT_HALF
    }
  }
  attr {
    key: "value"
    value {
      tensor {
        dtype: DT_HALF
        tensor_shape {
        }
        half_val: 23552
      }
    }
  }
  experimental_debug_info {
  }
}
node {
  name: "gradients/Mean_grad/truediv"
  op: "RealDiv"
  input: "gradients/Mean_grad/Tile"
  input: "gradients/Mean_grad/Const_1"
  attr {
    key: "T"
    value {
      type: DT_HALF
    }
  }
  attr {
    key: "_output_shapes"
    value {
      list {
        shape {
          dim {
            size: 256
          }
        }
      }
    }
  }
  experimental_debug_info {
  }
}
node {
  name: "gradients/SparseSoftmaxCrossEntropyWithLogits/Cast_1_grad/Cast"
  op: "Cast"
  input: "gradients/Mean_grad/truediv"
  attr {
    key: "DstT"
    value {
      type: DT_FLOAT
    }
  }
  attr {
    key: "SrcT"
    value {
      type: DT_HALF
    }
  }
  attr {
    key: "Truncate"
    value {
      b: false
    }
  }
  attr {
    key: "_output_shapes"
    value {
      list {
        shape {
          dim {
            size: 256
          }
        }
      }
    }
  }
  experimental_debug_info {
  }
}
node {
  name: "gradients/zeros_like"
  op: "ZerosLike"
  input: "SparseSoftmaxCrossEntropyWithLogits/SparseSoftmaxCrossEntropyWithLogits:1"
  attr {
    key: "T"
    value {
      type: DT_FLOAT
    }
  }
  attr {
    key: "_output_shapes"
    value {
      list {
        shape {
          dim {
            size: 256
          }
          dim {
            size: 10
          }
        }
      }
    }
  }
  experimental_debug_info {
  }
}
node {
  name: "gradients/SparseSoftmaxCrossEntropyWithLogits/SparseSoftmaxCrossEntropyWithLogits_grad/ExpandDims/dim"
  op: "Const"
  attr {
    key: "_output_shapes"
    value {
      list {
        shape {
        }
      }
    }
  }
  attr {
    key: "dtype"
    value {
      type: DT_INT32
    }
  }
  attr {
    key: "value"
    value {
      tensor {
        dtype: DT_INT32
        tensor_shape {
        }
        int_val: -1
      }
    }
  }
  experimental_debug_info {
  }
}
node {
  name: "gradients/SparseSoftmaxCrossEntropyWithLogits/SparseSoftmaxCrossEntropyWithLogits_grad/ExpandDims"
  op: "ExpandDims"
  input: "gradients/SparseSoftmaxCrossEntropyWithLogits/Cast_1_grad/Cast"
  input: "gradients/SparseSoftmaxCrossEntropyWithLogits/SparseSoftmaxCrossEntropyWithLogits_grad/ExpandDims/dim"
  attr {
    key: "T"
    value {
      type: DT_FLOAT
    }
  }
  attr {
    key: "Tdim"
    value {
      type: DT_INT32
    }
  }
  attr {
    key: "_output_shapes"
    value {
      list {
        shape {
          dim {
            size: 256
          }
          dim {
            size: 1
          }
        }
      }
    }
  }
  experimental_debug_info {
  }
}
node {
  name: "gradients/SparseSoftmaxCrossEntropyWithLogits/SparseSoftmaxCrossEntropyWithLogits_grad/mul"
  op: "Mul"
  input: "gradients/SparseSoftmaxCrossEntropyWithLogits/SparseSoftmaxCrossEntropyWithLogits_grad/ExpandDims"
  input: "SparseSoftmaxCrossEntropyWithLogits/SparseSoftmaxCrossEntropyWithLogits:1"
  attr {
    key: "T"
    value {
      type: DT_FLOAT
    }
  }
  attr {
    key: "_output_shapes"
    value {
      list {
        shape {
          dim {
            size: 256
          }
          dim {
            size: 10
          }
        }
      }
    }
  }
  experimental_debug_info {
  }
}
node {
  name: "gradients/SparseSoftmaxCrossEntropyWithLogits/Cast_grad/Cast"
  op: "Cast"
  input: "gradients/SparseSoftmaxCrossEntropyWithLogits/SparseSoftmaxCrossEntropyWithLogits_grad/mul"
  attr {
    key: "DstT"
    value {
      type: DT_HALF
    }
  }
  attr {
    key: "SrcT"
    value {
      type: DT_FLOAT
    }
  }
  attr {
    key: "Truncate"
    value {
      b: false
    }
  }
  attr {
    key: "_output_shapes"
    value {
      list {
        shape {
          dim {
            size: 256
          }
          dim {
            size: 10
          }
        }
      }
    }
  }
  experimental_debug_info {
  }
}
node {
  name: "gradients/km_disable_scope_4/dense_2/BiasAdd_grad/BiasAddGrad"
  op: "BiasAddGrad"
  input: "gradients/SparseSoftmaxCrossEntropyWithLogits/Cast_grad/Cast"
  attr {
    key: "T"
    value {
      type: DT_HALF
    }
  }
  attr {
    key: "_output_shapes"
    value {
      list {
        shape {
          dim {
            size: 10
          }
        }
      }
    }
  }
  attr {
    key: "data_format"
    value {
      s: "NHWC"
    }
  }
  experimental_debug_info {
  }
}
node {
  name: "gradients/km_disable_scope_4/dense_2/BiasAdd_grad/tuple/group_deps"
  op: "NoOp"
  input: "^gradients/SparseSoftmaxCrossEntropyWithLogits/Cast_grad/Cast"
  input: "^gradients/km_disable_scope_4/dense_2/BiasAdd_grad/BiasAddGrad"
  experimental_debug_info {
  }
}
node {
  name: "gradients/km_disable_scope_4/dense_2/BiasAdd_grad/tuple/control_dependency"
  op: "Identity"
  input: "gradients/SparseSoftmaxCrossEntropyWithLogits/Cast_grad/Cast"
  input: "^gradients/km_disable_scope_4/dense_2/BiasAdd_grad/tuple/group_deps"
  attr {
    key: "T"
    value {
      type: DT_HALF
    }
  }
  attr {
    key: "_class"
    value {
      list {
        s: "loc:@gradients/SparseSoftmaxCrossEntropyWithLogits/Cast_grad/Cast"
      }
    }
  }
  attr {
    key: "_output_shapes"
    value {
      list {
        shape {
          dim {
            size: 256
          }
          dim {
            size: 10
          }
        }
      }
    }
  }
  experimental_debug_info {
  }
}
node {
  name: "gradients/km_disable_scope_4/dense_2/BiasAdd_grad/tuple/control_dependency_1"
  op: "Identity"
  input: "gradients/km_disable_scope_4/dense_2/BiasAdd_grad/BiasAddGrad"
  input: "^gradients/km_disable_scope_4/dense_2/BiasAdd_grad/tuple/group_deps"
  attr {
    key: "T"
    value {
      type: DT_HALF
    }
  }
  attr {
    key: "_class"
    value {
      list {
        s: "loc:@gradients/km_disable_scope_4/dense_2/BiasAdd_grad/BiasAddGrad"
      }
    }
  }
  attr {
    key: "_output_shapes"
    value {
      list {
        shape {
          dim {
            size: 10
          }
        }
      }
    }
  }
  experimental_debug_info {
  }
}
node {
  name: "gradients/km_disable_scope_4/dense_2/MatMul_grad/MatMul"
  op: "MatMul"
  input: "gradients/km_disable_scope_4/dense_2/BiasAdd_grad/tuple/control_dependency"
  input: "km_disable_scope_4/dense_2/MatMul/Cast"
  attr {
    key: "T"
    value {
      type: DT_HALF
    }
  }
  attr {
    key: "_output_shapes"
    value {
      list {
        shape {
          dim {
            size: 256
          }
          dim {
            size: 300
          }
        }
      }
    }
  }
  attr {
    key: "transpose_a"
    value {
      b: false
    }
  }
  attr {
    key: "transpose_b"
    value {
      b: true
    }
  }
  experimental_debug_info {
  }
}
node {
  name: "gradients/km_disable_scope_4/dense_2/MatMul_grad/MatMul_1"
  op: "MatMul"
  input: "dropout_1/dropout/Mul_1"
  input: "gradients/km_disable_scope_4/dense_2/BiasAdd_grad/tuple/control_dependency"
  attr {
    key: "T"
    value {
      type: DT_HALF
    }
  }
  attr {
    key: "_output_shapes"
    value {
      list {
        shape {
          dim {
            size: 300
          }
          dim {
            size: 10
          }
        }
      }
    }
  }
  attr {
    key: "transpose_a"
    value {
      b: true
    }
  }
  attr {
    key: "transpose_b"
    value {
      b: false
    }
  }
  experimental_debug_info {
  }
}
node {
  name: "gradients/km_disable_scope_4/dense_2/MatMul_grad/tuple/group_deps"
  op: "NoOp"
  input: "^gradients/km_disable_scope_4/dense_2/MatMul_grad/MatMul"
  input: "^gradients/km_disable_scope_4/dense_2/MatMul_grad/MatMul_1"
  experimental_debug_info {
  }
}
node {
  name: "gradients/km_disable_scope_4/dense_2/MatMul_grad/tuple/control_dependency"
  op: "Identity"
  input: "gradients/km_disable_scope_4/dense_2/MatMul_grad/MatMul"
  input: "^gradients/km_disable_scope_4/dense_2/MatMul_grad/tuple/group_deps"
  attr {
    key: "T"
    value {
      type: DT_HALF
    }
  }
  attr {
    key: "_class"
    value {
      list {
        s: "loc:@gradients/km_disable_scope_4/dense_2/MatMul_grad/MatMul"
      }
    }
  }
  attr {
    key: "_output_shapes"
    value {
      list {
        shape {
          dim {
            size: 256
          }
          dim {
            size: 300
          }
        }
      }
    }
  }
  experimental_debug_info {
  }
}
node {
  name: "gradients/km_disable_scope_4/dense_2/MatMul_grad/tuple/control_dependency_1"
  op: "Identity"
  input: "gradients/km_disable_scope_4/dense_2/MatMul_grad/MatMul_1"
  input: "^gradients/km_disable_scope_4/dense_2/MatMul_grad/tuple/group_deps"
  attr {
    key: "T"
    value {
      type: DT_HALF
    }
  }
  attr {
    key: "_class"
    value {
      list {
        s: "loc:@gradients/km_disable_scope_4/dense_2/MatMul_grad/MatMul_1"
      }
    }
  }
  attr {
    key: "_output_shapes"
    value {
      list {
        shape {
          dim {
            size: 300
          }
          dim {
            size: 10
          }
        }
      }
    }
  }
  experimental_debug_info {
  }
}
node {
  name: "gradients/km_disable_scope_4/dense_2/BiasAdd/Cast_grad/Cast"
  op: "Cast"
  input: "gradients/km_disable_scope_4/dense_2/BiasAdd_grad/tuple/control_dependency_1"
  attr {
    key: "DstT"
    value {
      type: DT_FLOAT
    }
  }
  attr {
    key: "SrcT"
    value {
      type: DT_HALF
    }
  }
  attr {
    key: "Truncate"
    value {
      b: false
    }
  }
  attr {
    key: "_output_shapes"
    value {
      list {
        shape {
          dim {
            size: 10
          }
        }
      }
    }
  }
  experimental_debug_info {
  }
}
node {
  name: "gradients/dropout_1/dropout/Mul_1_grad/BroadcastGradientArgs/s0"
  op: "Const"
  attr {
    key: "_output_shapes"
    value {
      list {
        shape {
          dim {
            size: 2
          }
        }
      }
    }
  }
  attr {
    key: "dtype"
    value {
      type: DT_INT32
    }
  }
  attr {
    key: "value"
    value {
      tensor {
        dtype: DT_INT32
        tensor_shape {
          dim {
            size: 2
          }
        }
        tensor_content: "\000\001\000\000,\001\000\000"
      }
    }
  }
  experimental_debug_info {
  }
}
node {
  name: "gradients/dropout_1/dropout/Mul_1_grad/BroadcastGradientArgs/s1"
  op: "Const"
  attr {
    key: "_output_shapes"
    value {
      list {
        shape {
          dim {
            size: 2
          }
        }
      }
    }
  }
  attr {
    key: "dtype"
    value {
      type: DT_INT32
    }
  }
  attr {
    key: "value"
    value {
      tensor {
        dtype: DT_INT32
        tensor_shape {
          dim {
            size: 2
          }
        }
        tensor_content: "\000\001\000\000,\001\000\000"
      }
    }
  }
  experimental_debug_info {
  }
}
node {
  name: "gradients/dropout_1/dropout/Mul_1_grad/BroadcastGradientArgs"
  op: "BroadcastGradientArgs"
  input: "gradients/dropout_1/dropout/Mul_1_grad/BroadcastGradientArgs/s0"
  input: "gradients/dropout_1/dropout/Mul_1_grad/BroadcastGradientArgs/s1"
  attr {
    key: "T"
    value {
      type: DT_INT32
    }
  }
  attr {
    key: "_output_shapes"
    value {
      list {
        shape {
          dim {
            size: -1
          }
        }
        shape {
          dim {
            size: -1
          }
        }
      }
    }
  }
  experimental_debug_info {
  }
}
node {
  name: "gradients/dropout_1/dropout/Mul_1_grad/Mul"
  op: "Mul"
  input: "gradients/km_disable_scope_4/dense_2/MatMul_grad/tuple/control_dependency"
  input: "dropout_1/dropout/Cast"
  attr {
    key: "T"
    value {
      type: DT_HALF
    }
  }
  attr {
    key: "_output_shapes"
    value {
      list {
        shape {
          dim {
            size: 256
          }
          dim {
            size: 300
          }
        }
      }
    }
  }
  experimental_debug_info {
  }
}
node {
  name: "gradients/dropout_1/dropout/Mul_1_grad/Mul_1"
  op: "Mul"
  input: "dropout_1/dropout/Mul"
  input: "gradients/km_disable_scope_4/dense_2/MatMul_grad/tuple/control_dependency"
  attr {
    key: "T"
    value {
      type: DT_HALF
    }
  }
  attr {
    key: "_output_shapes"
    value {
      list {
        shape {
          dim {
            size: 256
          }
          dim {
            size: 300
          }
        }
      }
    }
  }
  experimental_debug_info {
  }
}
node {
  name: "gradients/dropout_1/dropout/Mul_1_grad/tuple/group_deps"
  op: "NoOp"
  input: "^gradients/dropout_1/dropout/Mul_1_grad/Mul"
  input: "^gradients/dropout_1/dropout/Mul_1_grad/Mul_1"
  experimental_debug_info {
  }
}
node {
  name: "gradients/dropout_1/dropout/Mul_1_grad/tuple/control_dependency"
  op: "Identity"
  input: "gradients/dropout_1/dropout/Mul_1_grad/Mul"
  input: "^gradients/dropout_1/dropout/Mul_1_grad/tuple/group_deps"
  attr {
    key: "T"
    value {
      type: DT_HALF
    }
  }
  attr {
    key: "_class"
    value {
      list {
        s: "loc:@gradients/dropout_1/dropout/Mul_1_grad/Mul"
      }
    }
  }
  attr {
    key: "_output_shapes"
    value {
      list {
        shape {
          dim {
            size: 256
          }
          dim {
            size: 300
          }
        }
      }
    }
  }
  experimental_debug_info {
  }
}
node {
  name: "gradients/dropout_1/dropout/Mul_1_grad/tuple/control_dependency_1"
  op: "Identity"
  input: "gradients/dropout_1/dropout/Mul_1_grad/Mul_1"
  input: "^gradients/dropout_1/dropout/Mul_1_grad/tuple/group_deps"
  attr {
    key: "T"
    value {
      type: DT_HALF
    }
  }
  attr {
    key: "_class"
    value {
      list {
        s: "loc:@gradients/dropout_1/dropout/Mul_1_grad/Mul_1"
      }
    }
  }
  attr {
    key: "_output_shapes"
    value {
      list {
        shape {
          dim {
            size: 256
          }
          dim {
            size: 300
          }
        }
      }
    }
  }
  experimental_debug_info {
  }
}
node {
  name: "gradients/km_disable_scope_4/dense_2/MatMul/Cast_grad/Cast"
  op: "Cast"
  input: "gradients/km_disable_scope_4/dense_2/MatMul_grad/tuple/control_dependency_1"
  attr {
    key: "DstT"
    value {
      type: DT_FLOAT
    }
  }
  attr {
    key: "SrcT"
    value {
      type: DT_HALF
    }
  }
  attr {
    key: "Truncate"
    value {
      b: false
    }
  }
  attr {
    key: "_output_shapes"
    value {
      list {
        shape {
          dim {
            size: 300
          }
          dim {
            size: 10
          }
        }
      }
    }
  }
  experimental_debug_info {
  }
}
node {
  name: "gradients/dropout_1/dropout/Mul_grad/BroadcastGradientArgs/s0"
  op: "Const"
  attr {
    key: "_output_shapes"
    value {
      list {
        shape {
          dim {
            size: 2
          }
        }
      }
    }
  }
  attr {
    key: "dtype"
    value {
      type: DT_INT32
    }
  }
  attr {
    key: "value"
    value {
      tensor {
        dtype: DT_INT32
        tensor_shape {
          dim {
            size: 2
          }
        }
        tensor_content: "\000\001\000\000,\001\000\000"
      }
    }
  }
  experimental_debug_info {
  }
}
node {
  name: "gradients/dropout_1/dropout/Mul_grad/BroadcastGradientArgs/s1"
  op: "Const"
  attr {
    key: "_output_shapes"
    value {
      list {
        shape {
          dim {
          }
        }
      }
    }
  }
  attr {
    key: "dtype"
    value {
      type: DT_INT32
    }
  }
  attr {
    key: "value"
    value {
      tensor {
        dtype: DT_INT32
        tensor_shape {
          dim {
          }
        }
      }
    }
  }
  experimental_debug_info {
  }
}
node {
  name: "gradients/dropout_1/dropout/Mul_grad/BroadcastGradientArgs"
  op: "BroadcastGradientArgs"
  input: "gradients/dropout_1/dropout/Mul_grad/BroadcastGradientArgs/s0"
  input: "gradients/dropout_1/dropout/Mul_grad/BroadcastGradientArgs/s1"
  attr {
    key: "T"
    value {
      type: DT_INT32
    }
  }
  attr {
    key: "_output_shapes"
    value {
      list {
        shape {
          dim {
            size: -1
          }
        }
        shape {
          dim {
            size: -1
          }
        }
      }
    }
  }
  experimental_debug_info {
  }
}
node {
  name: "gradients/dropout_1/dropout/Mul_grad/Mul"
  op: "Mul"
  input: "gradients/dropout_1/dropout/Mul_1_grad/tuple/control_dependency"
  input: "dropout_1/dropout/Const"
  attr {
    key: "T"
    value {
      type: DT_HALF
    }
  }
  attr {
    key: "_output_shapes"
    value {
      list {
        shape {
          dim {
            size: 256
          }
          dim {
            size: 300
          }
        }
      }
    }
  }
  experimental_debug_info {
  }
}
node {
  name: "gradients/dropout_1/dropout/Mul_grad/Mul_1"
  op: "Mul"
  input: "activation_1/Relu"
  input: "gradients/dropout_1/dropout/Mul_1_grad/tuple/control_dependency"
  attr {
    key: "T"
    value {
      type: DT_HALF
    }
  }
  attr {
    key: "_output_shapes"
    value {
      list {
        shape {
          dim {
            size: 256
          }
          dim {
            size: 300
          }
        }
      }
    }
  }
  experimental_debug_info {
  }
}
node {
  name: "gradients/dropout_1/dropout/Mul_grad/Sum/reduction_indices"
  op: "Const"
  attr {
    key: "_output_shapes"
    value {
      list {
        shape {
          dim {
            size: 2
          }
        }
      }
    }
  }
  attr {
    key: "dtype"
    value {
      type: DT_INT32
    }
  }
  attr {
    key: "value"
    value {
      tensor {
        dtype: DT_INT32
        tensor_shape {
          dim {
            size: 2
          }
        }
        tensor_content: "\000\000\000\000\001\000\000\000"
      }
    }
  }
  experimental_debug_info {
  }
}
node {
  name: "gradients/dropout_1/dropout/Mul_grad/Sum"
  op: "Sum"
  input: "gradients/dropout_1/dropout/Mul_grad/Mul_1"
  input: "gradients/dropout_1/dropout/Mul_grad/Sum/reduction_indices"
  attr {
    key: "T"
    value {
      type: DT_HALF
    }
  }
  attr {
    key: "Tidx"
    value {
      type: DT_INT32
    }
  }
  attr {
    key: "_output_shapes"
    value {
      list {
        shape {
        }
      }
    }
  }
  attr {
    key: "keep_dims"
    value {
      b: false
    }
  }
  experimental_debug_info {
  }
}
node {
  name: "gradients/dropout_1/dropout/Mul_grad/Reshape/shape"
  op: "Const"
  attr {
    key: "_output_shapes"
    value {
      list {
        shape {
          dim {
          }
        }
      }
    }
  }
  attr {
    key: "dtype"
    value {
      type: DT_INT32
    }
  }
  attr {
    key: "value"
    value {
      tensor {
        dtype: DT_INT32
        tensor_shape {
          dim {
          }
        }
      }
    }
  }
  experimental_debug_info {
  }
}
node {
  name: "gradients/dropout_1/dropout/Mul_grad/Reshape"
  op: "Reshape"
  input: "gradients/dropout_1/dropout/Mul_grad/Sum"
  input: "gradients/dropout_1/dropout/Mul_grad/Reshape/shape"
  attr {
    key: "T"
    value {
      type: DT_HALF
    }
  }
  attr {
    key: "Tshape"
    value {
      type: DT_INT32
    }
  }
  attr {
    key: "_output_shapes"
    value {
      list {
        shape {
        }
      }
    }
  }
  experimental_debug_info {
  }
}
node {
  name: "gradients/dropout_1/dropout/Mul_grad/tuple/group_deps"
  op: "NoOp"
  input: "^gradients/dropout_1/dropout/Mul_grad/Mul"
  input: "^gradients/dropout_1/dropout/Mul_grad/Reshape"
  experimental_debug_info {
  }
}
node {
  name: "gradients/dropout_1/dropout/Mul_grad/tuple/control_dependency"
  op: "Identity"
  input: "gradients/dropout_1/dropout/Mul_grad/Mul"
  input: "^gradients/dropout_1/dropout/Mul_grad/tuple/group_deps"
  attr {
    key: "T"
    value {
      type: DT_HALF
    }
  }
  attr {
    key: "_class"
    value {
      list {
        s: "loc:@gradients/dropout_1/dropout/Mul_grad/Mul"
      }
    }
  }
  attr {
    key: "_output_shapes"
    value {
      list {
        shape {
          dim {
            size: 256
          }
          dim {
            size: 300
          }
        }
      }
    }
  }
  experimental_debug_info {
  }
}
node {
  name: "gradients/dropout_1/dropout/Mul_grad/tuple/control_dependency_1"
  op: "Identity"
  input: "gradients/dropout_1/dropout/Mul_grad/Reshape"
  input: "^gradients/dropout_1/dropout/Mul_grad/tuple/group_deps"
  attr {
    key: "T"
    value {
      type: DT_HALF
    }
  }
  attr {
    key: "_class"
    value {
      list {
        s: "loc:@gradients/dropout_1/dropout/Mul_grad/Reshape"
      }
    }
  }
  attr {
    key: "_output_shapes"
    value {
      list {
        shape {
        }
      }
    }
  }
  experimental_debug_info {
  }
}
node {
  name: "gradients/activation_1/Relu_grad/ReluGrad"
  op: "ReluGrad"
  input: "gradients/dropout_1/dropout/Mul_grad/tuple/control_dependency"
  input: "activation_1/Relu"
  attr {
    key: "T"
    value {
      type: DT_HALF
    }
  }
  attr {
    key: "_output_shapes"
    value {
      list {
        shape {
          dim {
            size: 256
          }
          dim {
            size: 300
          }
        }
      }
    }
  }
  experimental_debug_info {
  }
}
node {
  name: "gradients/km_disable_scope_3/dense_1/BiasAdd_grad/BiasAddGrad"
  op: "BiasAddGrad"
  input: "gradients/activation_1/Relu_grad/ReluGrad"
  attr {
    key: "T"
    value {
      type: DT_HALF
    }
  }
  attr {
    key: "_output_shapes"
    value {
      list {
        shape {
          dim {
            size: 300
          }
        }
      }
    }
  }
  attr {
    key: "data_format"
    value {
      s: "NHWC"
    }
  }
  experimental_debug_info {
  }
}
node {
  name: "gradients/km_disable_scope_3/dense_1/BiasAdd_grad/tuple/group_deps"
  op: "NoOp"
  input: "^gradients/activation_1/Relu_grad/ReluGrad"
  input: "^gradients/km_disable_scope_3/dense_1/BiasAdd_grad/BiasAddGrad"
  experimental_debug_info {
  }
}
node {
  name: "gradients/km_disable_scope_3/dense_1/BiasAdd_grad/tuple/control_dependency"
  op: "Identity"
  input: "gradients/activation_1/Relu_grad/ReluGrad"
  input: "^gradients/km_disable_scope_3/dense_1/BiasAdd_grad/tuple/group_deps"
  attr {
    key: "T"
    value {
      type: DT_HALF
    }
  }
  attr {
    key: "_class"
    value {
      list {
        s: "loc:@gradients/activation_1/Relu_grad/ReluGrad"
      }
    }
  }
  attr {
    key: "_output_shapes"
    value {
      list {
        shape {
          dim {
            size: 256
          }
          dim {
            size: 300
          }
        }
      }
    }
  }
  experimental_debug_info {
  }
}
node {
  name: "gradients/km_disable_scope_3/dense_1/BiasAdd_grad/tuple/control_dependency_1"
  op: "Identity"
  input: "gradients/km_disable_scope_3/dense_1/BiasAdd_grad/BiasAddGrad"
  input: "^gradients/km_disable_scope_3/dense_1/BiasAdd_grad/tuple/group_deps"
  attr {
    key: "T"
    value {
      type: DT_HALF
    }
  }
  attr {
    key: "_class"
    value {
      list {
        s: "loc:@gradients/km_disable_scope_3/dense_1/BiasAdd_grad/BiasAddGrad"
      }
    }
  }
  attr {
    key: "_output_shapes"
    value {
      list {
        shape {
          dim {
            size: 300
          }
        }
      }
    }
  }
  experimental_debug_info {
  }
}
node {
  name: "gradients/km_disable_scope_3/dense_1/MatMul_grad/MatMul"
  op: "MatMul"
  input: "gradients/km_disable_scope_3/dense_1/BiasAdd_grad/tuple/control_dependency"
  input: "km_disable_scope_3/dense_1/MatMul/Cast"
  attr {
    key: "T"
    value {
      type: DT_HALF
    }
  }
  attr {
    key: "_output_shapes"
    value {
      list {
        shape {
          dim {
            size: 256
          }
          dim {
            size: 500
          }
        }
      }
    }
  }
  attr {
    key: "transpose_a"
    value {
      b: false
    }
  }
  attr {
    key: "transpose_b"
    value {
      b: true
    }
  }
  experimental_debug_info {
  }
}
node {
  name: "gradients/km_disable_scope_3/dense_1/MatMul_grad/MatMul_1"
  op: "MatMul"
  input: "dropout/dropout/Mul_1"
  input: "gradients/km_disable_scope_3/dense_1/BiasAdd_grad/tuple/control_dependency"
  attr {
    key: "T"
    value {
      type: DT_HALF
    }
  }
  attr {
    key: "_output_shapes"
    value {
      list {
        shape {
          dim {
            size: 500
          }
          dim {
            size: 300
          }
        }
      }
    }
  }
  attr {
    key: "transpose_a"
    value {
      b: true
    }
  }
  attr {
    key: "transpose_b"
    value {
      b: false
    }
  }
  experimental_debug_info {
  }
}
node {
  name: "gradients/km_disable_scope_3/dense_1/MatMul_grad/tuple/group_deps"
  op: "NoOp"
  input: "^gradients/km_disable_scope_3/dense_1/MatMul_grad/MatMul"
  input: "^gradients/km_disable_scope_3/dense_1/MatMul_grad/MatMul_1"
  experimental_debug_info {
  }
}
node {
  name: "gradients/km_disable_scope_3/dense_1/MatMul_grad/tuple/control_dependency"
  op: "Identity"
  input: "gradients/km_disable_scope_3/dense_1/MatMul_grad/MatMul"
  input: "^gradients/km_disable_scope_3/dense_1/MatMul_grad/tuple/group_deps"
  attr {
    key: "T"
    value {
      type: DT_HALF
    }
  }
  attr {
    key: "_class"
    value {
      list {
        s: "loc:@gradients/km_disable_scope_3/dense_1/MatMul_grad/MatMul"
      }
    }
  }
  attr {
    key: "_output_shapes"
    value {
      list {
        shape {
          dim {
            size: 256
          }
          dim {
            size: 500
          }
        }
      }
    }
  }
  experimental_debug_info {
  }
}
node {
  name: "gradients/km_disable_scope_3/dense_1/MatMul_grad/tuple/control_dependency_1"
  op: "Identity"
  input: "gradients/km_disable_scope_3/dense_1/MatMul_grad/MatMul_1"
  input: "^gradients/km_disable_scope_3/dense_1/MatMul_grad/tuple/group_deps"
  attr {
    key: "T"
    value {
      type: DT_HALF
    }
  }
  attr {
    key: "_class"
    value {
      list {
        s: "loc:@gradients/km_disable_scope_3/dense_1/MatMul_grad/MatMul_1"
      }
    }
  }
  attr {
    key: "_output_shapes"
    value {
      list {
        shape {
          dim {
            size: 500
          }
          dim {
            size: 300
          }
        }
      }
    }
  }
  experimental_debug_info {
  }
}
node {
  name: "gradients/km_disable_scope_3/dense_1/BiasAdd/Cast_grad/Cast"
  op: "Cast"
  input: "gradients/km_disable_scope_3/dense_1/BiasAdd_grad/tuple/control_dependency_1"
  attr {
    key: "DstT"
    value {
      type: DT_FLOAT
    }
  }
  attr {
    key: "SrcT"
    value {
      type: DT_HALF
    }
  }
  attr {
    key: "Truncate"
    value {
      b: false
    }
  }
  attr {
    key: "_output_shapes"
    value {
      list {
        shape {
          dim {
            size: 300
          }
        }
      }
    }
  }
  experimental_debug_info {
  }
}
node {
  name: "gradients/dropout/dropout/Mul_1_grad/BroadcastGradientArgs/s0"
  op: "Const"
  attr {
    key: "_output_shapes"
    value {
      list {
        shape {
          dim {
            size: 2
          }
        }
      }
    }
  }
  attr {
    key: "dtype"
    value {
      type: DT_INT32
    }
  }
  attr {
    key: "value"
    value {
      tensor {
        dtype: DT_INT32
        tensor_shape {
          dim {
            size: 2
          }
        }
        tensor_content: "\000\001\000\000\364\001\000\000"
      }
    }
  }
  experimental_debug_info {
  }
}
node {
  name: "gradients/dropout/dropout/Mul_1_grad/BroadcastGradientArgs/s1"
  op: "Const"
  attr {
    key: "_output_shapes"
    value {
      list {
        shape {
          dim {
            size: 2
          }
        }
      }
    }
  }
  attr {
    key: "dtype"
    value {
      type: DT_INT32
    }
  }
  attr {
    key: "value"
    value {
      tensor {
        dtype: DT_INT32
        tensor_shape {
          dim {
            size: 2
          }
        }
        tensor_content: "\000\001\000\000\364\001\000\000"
      }
    }
  }
  experimental_debug_info {
  }
}
node {
  name: "gradients/dropout/dropout/Mul_1_grad/BroadcastGradientArgs"
  op: "BroadcastGradientArgs"
  input: "gradients/dropout/dropout/Mul_1_grad/BroadcastGradientArgs/s0"
  input: "gradients/dropout/dropout/Mul_1_grad/BroadcastGradientArgs/s1"
  attr {
    key: "T"
    value {
      type: DT_INT32
    }
  }
  attr {
    key: "_output_shapes"
    value {
      list {
        shape {
          dim {
            size: -1
          }
        }
        shape {
          dim {
            size: -1
          }
        }
      }
    }
  }
  experimental_debug_info {
  }
}
node {
  name: "gradients/dropout/dropout/Mul_1_grad/Mul"
  op: "Mul"
  input: "gradients/km_disable_scope_3/dense_1/MatMul_grad/tuple/control_dependency"
  input: "dropout/dropout/Cast"
  attr {
    key: "T"
    value {
      type: DT_HALF
    }
  }
  attr {
    key: "_output_shapes"
    value {
      list {
        shape {
          dim {
            size: 256
          }
          dim {
            size: 500
          }
        }
      }
    }
  }
  experimental_debug_info {
  }
}
node {
  name: "gradients/dropout/dropout/Mul_1_grad/Mul_1"
  op: "Mul"
  input: "dropout/dropout/Mul"
  input: "gradients/km_disable_scope_3/dense_1/MatMul_grad/tuple/control_dependency"
  attr {
    key: "T"
    value {
      type: DT_HALF
    }
  }
  attr {
    key: "_output_shapes"
    value {
      list {
        shape {
          dim {
            size: 256
          }
          dim {
            size: 500
          }
        }
      }
    }
  }
  experimental_debug_info {
  }
}
node {
  name: "gradients/dropout/dropout/Mul_1_grad/tuple/group_deps"
  op: "NoOp"
  input: "^gradients/dropout/dropout/Mul_1_grad/Mul"
  input: "^gradients/dropout/dropout/Mul_1_grad/Mul_1"
  experimental_debug_info {
  }
}
node {
  name: "gradients/dropout/dropout/Mul_1_grad/tuple/control_dependency"
  op: "Identity"
  input: "gradients/dropout/dropout/Mul_1_grad/Mul"
  input: "^gradients/dropout/dropout/Mul_1_grad/tuple/group_deps"
  attr {
    key: "T"
    value {
      type: DT_HALF
    }
  }
  attr {
    key: "_class"
    value {
      list {
        s: "loc:@gradients/dropout/dropout/Mul_1_grad/Mul"
      }
    }
  }
  attr {
    key: "_output_shapes"
    value {
      list {
        shape {
          dim {
            size: 256
          }
          dim {
            size: 500
          }
        }
      }
    }
  }
  experimental_debug_info {
  }
}
node {
  name: "gradients/dropout/dropout/Mul_1_grad/tuple/control_dependency_1"
  op: "Identity"
  input: "gradients/dropout/dropout/Mul_1_grad/Mul_1"
  input: "^gradients/dropout/dropout/Mul_1_grad/tuple/group_deps"
  attr {
    key: "T"
    value {
      type: DT_HALF
    }
  }
  attr {
    key: "_class"
    value {
      list {
        s: "loc:@gradients/dropout/dropout/Mul_1_grad/Mul_1"
      }
    }
  }
  attr {
    key: "_output_shapes"
    value {
      list {
        shape {
          dim {
            size: 256
          }
          dim {
            size: 500
          }
        }
      }
    }
  }
  experimental_debug_info {
  }
}
node {
  name: "gradients/km_disable_scope_3/dense_1/MatMul/Cast_grad/Cast"
  op: "Cast"
  input: "gradients/km_disable_scope_3/dense_1/MatMul_grad/tuple/control_dependency_1"
  attr {
    key: "DstT"
    value {
      type: DT_FLOAT
    }
  }
  attr {
    key: "SrcT"
    value {
      type: DT_HALF
    }
  }
  attr {
    key: "Truncate"
    value {
      b: false
    }
  }
  attr {
    key: "_output_shapes"
    value {
      list {
        shape {
          dim {
            size: 500
          }
          dim {
            size: 300
          }
        }
      }
    }
  }
  experimental_debug_info {
  }
}
node {
  name: "gradients/dropout/dropout/Mul_grad/BroadcastGradientArgs/s0"
  op: "Const"
  attr {
    key: "_output_shapes"
    value {
      list {
        shape {
          dim {
            size: 2
          }
        }
      }
    }
  }
  attr {
    key: "dtype"
    value {
      type: DT_INT32
    }
  }
  attr {
    key: "value"
    value {
      tensor {
        dtype: DT_INT32
        tensor_shape {
          dim {
            size: 2
          }
        }
        tensor_content: "\000\001\000\000\364\001\000\000"
      }
    }
  }
  experimental_debug_info {
  }
}
node {
  name: "gradients/dropout/dropout/Mul_grad/BroadcastGradientArgs/s1"
  op: "Const"
  attr {
    key: "_output_shapes"
    value {
      list {
        shape {
          dim {
          }
        }
      }
    }
  }
  attr {
    key: "dtype"
    value {
      type: DT_INT32
    }
  }
  attr {
    key: "value"
    value {
      tensor {
        dtype: DT_INT32
        tensor_shape {
          dim {
          }
        }
      }
    }
  }
  experimental_debug_info {
  }
}
node {
  name: "gradients/dropout/dropout/Mul_grad/BroadcastGradientArgs"
  op: "BroadcastGradientArgs"
  input: "gradients/dropout/dropout/Mul_grad/BroadcastGradientArgs/s0"
  input: "gradients/dropout/dropout/Mul_grad/BroadcastGradientArgs/s1"
  attr {
    key: "T"
    value {
      type: DT_INT32
    }
  }
  attr {
    key: "_output_shapes"
    value {
      list {
        shape {
          dim {
            size: -1
          }
        }
        shape {
          dim {
            size: -1
          }
        }
      }
    }
  }
  experimental_debug_info {
  }
}
node {
  name: "gradients/dropout/dropout/Mul_grad/Mul"
  op: "Mul"
  input: "gradients/dropout/dropout/Mul_1_grad/tuple/control_dependency"
  input: "dropout/dropout/Const"
  attr {
    key: "T"
    value {
      type: DT_HALF
    }
  }
  attr {
    key: "_output_shapes"
    value {
      list {
        shape {
          dim {
            size: 256
          }
          dim {
            size: 500
          }
        }
      }
    }
  }
  experimental_debug_info {
  }
}
node {
  name: "gradients/dropout/dropout/Mul_grad/Mul_1"
  op: "Mul"
  input: "activation/Relu"
  input: "gradients/dropout/dropout/Mul_1_grad/tuple/control_dependency"
  attr {
    key: "T"
    value {
      type: DT_HALF
    }
  }
  attr {
    key: "_output_shapes"
    value {
      list {
        shape {
          dim {
            size: 256
          }
          dim {
            size: 500
          }
        }
      }
    }
  }
  experimental_debug_info {
  }
}
node {
  name: "gradients/dropout/dropout/Mul_grad/Sum/reduction_indices"
  op: "Const"
  attr {
    key: "_output_shapes"
    value {
      list {
        shape {
          dim {
            size: 2
          }
        }
      }
    }
  }
  attr {
    key: "dtype"
    value {
      type: DT_INT32
    }
  }
  attr {
    key: "value"
    value {
      tensor {
        dtype: DT_INT32
        tensor_shape {
          dim {
            size: 2
          }
        }
        tensor_content: "\000\000\000\000\001\000\000\000"
      }
    }
  }
  experimental_debug_info {
  }
}
node {
  name: "gradients/dropout/dropout/Mul_grad/Sum"
  op: "Sum"
  input: "gradients/dropout/dropout/Mul_grad/Mul_1"
  input: "gradients/dropout/dropout/Mul_grad/Sum/reduction_indices"
  attr {
    key: "T"
    value {
      type: DT_HALF
    }
  }
  attr {
    key: "Tidx"
    value {
      type: DT_INT32
    }
  }
  attr {
    key: "_output_shapes"
    value {
      list {
        shape {
        }
      }
    }
  }
  attr {
    key: "keep_dims"
    value {
      b: false
    }
  }
  experimental_debug_info {
  }
}
node {
  name: "gradients/dropout/dropout/Mul_grad/Reshape/shape"
  op: "Const"
  attr {
    key: "_output_shapes"
    value {
      list {
        shape {
          dim {
          }
        }
      }
    }
  }
  attr {
    key: "dtype"
    value {
      type: DT_INT32
    }
  }
  attr {
    key: "value"
    value {
      tensor {
        dtype: DT_INT32
        tensor_shape {
          dim {
          }
        }
      }
    }
  }
  experimental_debug_info {
  }
}
node {
  name: "gradients/dropout/dropout/Mul_grad/Reshape"
  op: "Reshape"
  input: "gradients/dropout/dropout/Mul_grad/Sum"
  input: "gradients/dropout/dropout/Mul_grad/Reshape/shape"
  attr {
    key: "T"
    value {
      type: DT_HALF
    }
  }
  attr {
    key: "Tshape"
    value {
      type: DT_INT32
    }
  }
  attr {
    key: "_output_shapes"
    value {
      list {
        shape {
        }
      }
    }
  }
  experimental_debug_info {
  }
}
node {
  name: "gradients/dropout/dropout/Mul_grad/tuple/group_deps"
  op: "NoOp"
  input: "^gradients/dropout/dropout/Mul_grad/Mul"
  input: "^gradients/dropout/dropout/Mul_grad/Reshape"
  experimental_debug_info {
  }
}
node {
  name: "gradients/dropout/dropout/Mul_grad/tuple/control_dependency"
  op: "Identity"
  input: "gradients/dropout/dropout/Mul_grad/Mul"
  input: "^gradients/dropout/dropout/Mul_grad/tuple/group_deps"
  attr {
    key: "T"
    value {
      type: DT_HALF
    }
  }
  attr {
    key: "_class"
    value {
      list {
        s: "loc:@gradients/dropout/dropout/Mul_grad/Mul"
      }
    }
  }
  attr {
    key: "_output_shapes"
    value {
      list {
        shape {
          dim {
            size: 256
          }
          dim {
            size: 500
          }
        }
      }
    }
  }
  experimental_debug_info {
  }
}
node {
  name: "gradients/dropout/dropout/Mul_grad/tuple/control_dependency_1"
  op: "Identity"
  input: "gradients/dropout/dropout/Mul_grad/Reshape"
  input: "^gradients/dropout/dropout/Mul_grad/tuple/group_deps"
  attr {
    key: "T"
    value {
      type: DT_HALF
    }
  }
  attr {
    key: "_class"
    value {
      list {
        s: "loc:@gradients/dropout/dropout/Mul_grad/Reshape"
      }
    }
  }
  attr {
    key: "_output_shapes"
    value {
      list {
        shape {
        }
      }
    }
  }
  experimental_debug_info {
  }
}
node {
  name: "gradients/activation/Relu_grad/ReluGrad"
  op: "ReluGrad"
  input: "gradients/dropout/dropout/Mul_grad/tuple/control_dependency"
  input: "activation/Relu"
  attr {
    key: "T"
    value {
      type: DT_HALF
    }
  }
  attr {
    key: "_output_shapes"
    value {
      list {
        shape {
          dim {
            size: 256
          }
          dim {
            size: 500
          }
        }
      }
    }
  }
  experimental_debug_info {
  }
}
node {
  name: "gradients/km_disable_scope_1/dense/BiasAdd_grad/BiasAddGrad"
  op: "BiasAddGrad"
  input: "gradients/activation/Relu_grad/ReluGrad"
  attr {
    key: "T"
    value {
      type: DT_HALF
    }
  }
  attr {
    key: "_output_shapes"
    value {
      list {
        shape {
          dim {
            size: 500
          }
        }
      }
    }
  }
  attr {
    key: "data_format"
    value {
      s: "NHWC"
    }
  }
  experimental_debug_info {
  }
}
node {
  name: "gradients/km_disable_scope_1/dense/BiasAdd_grad/tuple/group_deps"
  op: "NoOp"
  input: "^gradients/activation/Relu_grad/ReluGrad"
  input: "^gradients/km_disable_scope_1/dense/BiasAdd_grad/BiasAddGrad"
  experimental_debug_info {
  }
}
node {
  name: "gradients/km_disable_scope_1/dense/BiasAdd_grad/tuple/control_dependency"
  op: "Identity"
  input: "gradients/activation/Relu_grad/ReluGrad"
  input: "^gradients/km_disable_scope_1/dense/BiasAdd_grad/tuple/group_deps"
  attr {
    key: "T"
    value {
      type: DT_HALF
    }
  }
  attr {
    key: "_class"
    value {
      list {
        s: "loc:@gradients/activation/Relu_grad/ReluGrad"
      }
    }
  }
  attr {
    key: "_output_shapes"
    value {
      list {
        shape {
          dim {
            size: 256
          }
          dim {
            size: 500
          }
        }
      }
    }
  }
  experimental_debug_info {
  }
}
node {
  name: "gradients/km_disable_scope_1/dense/BiasAdd_grad/tuple/control_dependency_1"
  op: "Identity"
  input: "gradients/km_disable_scope_1/dense/BiasAdd_grad/BiasAddGrad"
  input: "^gradients/km_disable_scope_1/dense/BiasAdd_grad/tuple/group_deps"
  attr {
    key: "T"
    value {
      type: DT_HALF
    }
  }
  attr {
    key: "_class"
    value {
      list {
        s: "loc:@gradients/km_disable_scope_1/dense/BiasAdd_grad/BiasAddGrad"
      }
    }
  }
  attr {
    key: "_output_shapes"
    value {
      list {
        shape {
          dim {
            size: 500
          }
        }
      }
    }
  }
  experimental_debug_info {
  }
}
node {
  name: "gradients/km_disable_scope_1/dense/MatMul_grad/MatMul"
  op: "MatMul"
  input: "gradients/km_disable_scope_1/dense/BiasAdd_grad/tuple/control_dependency"
  input: "km_disable_scope_1/dense/MatMul/Cast"
  attr {
    key: "T"
    value {
      type: DT_HALF
    }
  }
  attr {
    key: "_output_shapes"
    value {
      list {
        shape {
          dim {
            size: 256
          }
          dim {
            size: 784
          }
        }
      }
    }
  }
  attr {
    key: "transpose_a"
    value {
      b: false
    }
  }
  attr {
    key: "transpose_b"
    value {
      b: true
    }
  }
  experimental_debug_info {
  }
}
node {
  name: "gradients/km_disable_scope_1/dense/MatMul_grad/MatMul_1"
  op: "MatMul"
  input: "IteratorGetNext"
  input: "gradients/km_disable_scope_1/dense/BiasAdd_grad/tuple/control_dependency"
  attr {
    key: "T"
    value {
      type: DT_HALF
    }
  }
  attr {
    key: "_output_shapes"
    value {
      list {
        shape {
          dim {
            size: 784
          }
          dim {
            size: 500
          }
        }
      }
    }
  }
  attr {
    key: "transpose_a"
    value {
      b: true
    }
  }
  attr {
    key: "transpose_b"
    value {
      b: false
    }
  }
  experimental_debug_info {
  }
}
node {
  name: "gradients/km_disable_scope_1/dense/MatMul_grad/tuple/group_deps"
  op: "NoOp"
  input: "^gradients/km_disable_scope_1/dense/MatMul_grad/MatMul"
  input: "^gradients/km_disable_scope_1/dense/MatMul_grad/MatMul_1"
  experimental_debug_info {
  }
}
node {
  name: "gradients/km_disable_scope_1/dense/MatMul_grad/tuple/control_dependency"
  op: "Identity"
  input: "gradients/km_disable_scope_1/dense/MatMul_grad/MatMul"
  input: "^gradients/km_disable_scope_1/dense/MatMul_grad/tuple/group_deps"
  attr {
    key: "T"
    value {
      type: DT_HALF
    }
  }
  attr {
    key: "_class"
    value {
      list {
        s: "loc:@gradients/km_disable_scope_1/dense/MatMul_grad/MatMul"
      }
    }
  }
  attr {
    key: "_output_shapes"
    value {
      list {
        shape {
          dim {
            size: 256
          }
          dim {
            size: 784
          }
        }
      }
    }
  }
  experimental_debug_info {
  }
}
node {
  name: "gradients/km_disable_scope_1/dense/MatMul_grad/tuple/control_dependency_1"
  op: "Identity"
  input: "gradients/km_disable_scope_1/dense/MatMul_grad/MatMul_1"
  input: "^gradients/km_disable_scope_1/dense/MatMul_grad/tuple/group_deps"
  attr {
    key: "T"
    value {
      type: DT_HALF
    }
  }
  attr {
    key: "_class"
    value {
      list {
        s: "loc:@gradients/km_disable_scope_1/dense/MatMul_grad/MatMul_1"
      }
    }
  }
  attr {
    key: "_output_shapes"
    value {
      list {
        shape {
          dim {
            size: 784
          }
          dim {
            size: 500
          }
        }
      }
    }
  }
  experimental_debug_info {
  }
}
node {
  name: "gradients/km_disable_scope_1/dense/BiasAdd/Cast_grad/Cast"
  op: "Cast"
  input: "gradients/km_disable_scope_1/dense/BiasAdd_grad/tuple/control_dependency_1"
  attr {
    key: "DstT"
    value {
      type: DT_FLOAT
    }
  }
  attr {
    key: "SrcT"
    value {
      type: DT_HALF
    }
  }
  attr {
    key: "Truncate"
    value {
      b: false
    }
  }
  attr {
    key: "_output_shapes"
    value {
      list {
        shape {
          dim {
            size: 500
          }
        }
      }
    }
  }
  experimental_debug_info {
  }
}
node {
  name: "gradients/km_disable_scope_1/dense/MatMul/Cast_grad/Cast"
  op: "Cast"
  input: "gradients/km_disable_scope_1/dense/MatMul_grad/tuple/control_dependency_1"
  attr {
    key: "DstT"
    value {
      type: DT_FLOAT
    }
  }
  attr {
    key: "SrcT"
    value {
      type: DT_HALF
    }
  }
  attr {
    key: "Truncate"
    value {
      b: false
    }
  }
  attr {
    key: "_output_shapes"
    value {
      list {
        shape {
          dim {
            size: 784
          }
          dim {
            size: 500
          }
        }
      }
    }
  }
  experimental_debug_info {
  }
}
node {
  name: "beta1_power/Initializer/initial_value"
  op: "Const"
  attr {
    key: "_class"
    value {
      list {
        s: "loc:@km_disable_scope_1/dense/bias"
      }
    }
  }
  attr {
    key: "_output_shapes"
    value {
      list {
        shape {
        }
      }
    }
  }
  attr {
    key: "dtype"
    value {
      type: DT_FLOAT
    }
  }
  attr {
    key: "value"
    value {
      tensor {
        dtype: DT_FLOAT
        tensor_shape {
        }
        float_val: 0.8999999761581421
      }
    }
  }
  experimental_debug_info {
  }
}
node {
  name: "beta1_power"
  op: "VarHandleOp"
  attr {
    key: "_class"
    value {
      list {
        s: "loc:@km_disable_scope_1/dense/bias"
      }
    }
  }
  attr {
    key: "_output_shapes"
    value {
      list {
        shape {
        }
      }
    }
  }
  attr {
    key: "container"
    value {
      s: ""
    }
  }
  attr {
    key: "dtype"
    value {
      type: DT_FLOAT
    }
  }
  attr {
    key: "shape"
    value {
      shape {
      }
    }
  }
  attr {
    key: "shared_name"
    value {
      s: "beta1_power"
    }
  }
  experimental_debug_info {
  }
}
node {
  name: "beta1_power/IsInitialized/VarIsInitializedOp"
  op: "VarIsInitializedOp"
  input: "beta1_power"
  attr {
    key: "_class"
    value {
      list {
        s: "loc:@km_disable_scope_1/dense/bias"
      }
    }
  }
  attr {
    key: "_output_shapes"
    value {
      list {
        shape {
        }
      }
    }
  }
  experimental_debug_info {
  }
}
node {
  name: "beta1_power/Assign"
  op: "AssignVariableOp"
  input: "beta1_power"
  input: "beta1_power/Initializer/initial_value"
  attr {
    key: "dtype"
    value {
      type: DT_FLOAT
    }
  }
  experimental_debug_info {
  }
}
node {
  name: "beta1_power/Read/ReadVariableOp"
  op: "ReadVariableOp"
  input: "beta1_power"
  attr {
    key: "_class"
    value {
      list {
        s: "loc:@km_disable_scope_1/dense/bias"
      }
    }
  }
  attr {
    key: "_output_shapes"
    value {
      list {
        shape {
        }
      }
    }
  }
  attr {
    key: "dtype"
    value {
      type: DT_FLOAT
    }
  }
  experimental_debug_info {
  }
}
node {
  name: "beta2_power/Initializer/initial_value"
  op: "Const"
  attr {
    key: "_class"
    value {
      list {
        s: "loc:@km_disable_scope_1/dense/bias"
      }
    }
  }
  attr {
    key: "_output_shapes"
    value {
      list {
        shape {
        }
      }
    }
  }
  attr {
    key: "dtype"
    value {
      type: DT_FLOAT
    }
  }
  attr {
    key: "value"
    value {
      tensor {
        dtype: DT_FLOAT
        tensor_shape {
        }
        float_val: 0.9990000128746033
      }
    }
  }
  experimental_debug_info {
  }
}
node {
  name: "beta2_power"
  op: "VarHandleOp"
  attr {
    key: "_class"
    value {
      list {
        s: "loc:@km_disable_scope_1/dense/bias"
      }
    }
  }
  attr {
    key: "_output_shapes"
    value {
      list {
        shape {
        }
      }
    }
  }
  attr {
    key: "container"
    value {
      s: ""
    }
  }
  attr {
    key: "dtype"
    value {
      type: DT_FLOAT
    }
  }
  attr {
    key: "shape"
    value {
      shape {
      }
    }
  }
  attr {
    key: "shared_name"
    value {
      s: "beta2_power"
    }
  }
  experimental_debug_info {
  }
}
node {
  name: "beta2_power/IsInitialized/VarIsInitializedOp"
  op: "VarIsInitializedOp"
  input: "beta2_power"
  attr {
    key: "_class"
    value {
      list {
        s: "loc:@km_disable_scope_1/dense/bias"
      }
    }
  }
  attr {
    key: "_output_shapes"
    value {
      list {
        shape {
        }
      }
    }
  }
  experimental_debug_info {
  }
}
node {
  name: "beta2_power/Assign"
  op: "AssignVariableOp"
  input: "beta2_power"
  input: "beta2_power/Initializer/initial_value"
  attr {
    key: "dtype"
    value {
      type: DT_FLOAT
    }
  }
  experimental_debug_info {
  }
}
node {
  name: "beta2_power/Read/ReadVariableOp"
  op: "ReadVariableOp"
  input: "beta2_power"
  attr {
    key: "_class"
    value {
      list {
        s: "loc:@km_disable_scope_1/dense/bias"
      }
    }
  }
  attr {
    key: "_output_shapes"
    value {
      list {
        shape {
        }
      }
    }
  }
  attr {
    key: "dtype"
    value {
      type: DT_FLOAT
    }
  }
  experimental_debug_info {
  }
}
node {
  name: "km_disable_scope_1/dense/kernel/Adam/Initializer/zeros/shape_as_tensor"
  op: "Const"
  attr {
    key: "_class"
    value {
      list {
        s: "loc:@km_disable_scope_1/dense/kernel"
      }
    }
  }
  attr {
    key: "_output_shapes"
    value {
      list {
        shape {
          dim {
            size: 2
          }
        }
      }
    }
  }
  attr {
    key: "dtype"
    value {
      type: DT_INT32
    }
  }
  attr {
    key: "value"
    value {
      tensor {
        dtype: DT_INT32
        tensor_shape {
          dim {
            size: 2
          }
        }
        tensor_content: "\020\003\000\000\364\001\000\000"
      }
    }
  }
  experimental_debug_info {
  }
}
node {
  name: "km_disable_scope_1/dense/kernel/Adam/Initializer/zeros/Const"
  op: "Const"
  attr {
    key: "_class"
    value {
      list {
        s: "loc:@km_disable_scope_1/dense/kernel"
      }
    }
  }
  attr {
    key: "_output_shapes"
    value {
      list {
        shape {
        }
      }
    }
  }
  attr {
    key: "dtype"
    value {
      type: DT_FLOAT
    }
  }
  attr {
    key: "value"
    value {
      tensor {
        dtype: DT_FLOAT
        tensor_shape {
        }
        float_val: 0.0
      }
    }
  }
  experimental_debug_info {
  }
}
node {
  name: "km_disable_scope_1/dense/kernel/Adam/Initializer/zeros"
  op: "Fill"
  input: "km_disable_scope_1/dense/kernel/Adam/Initializer/zeros/shape_as_tensor"
  input: "km_disable_scope_1/dense/kernel/Adam/Initializer/zeros/Const"
  attr {
    key: "T"
    value {
      type: DT_FLOAT
    }
  }
  attr {
    key: "_class"
    value {
      list {
        s: "loc:@km_disable_scope_1/dense/kernel"
      }
    }
  }
  attr {
    key: "_output_shapes"
    value {
      list {
        shape {
          dim {
            size: 784
          }
          dim {
            size: 500
          }
        }
      }
    }
  }
  attr {
    key: "index_type"
    value {
      type: DT_INT32
    }
  }
  experimental_debug_info {
  }
}
node {
  name: "km_disable_scope_1/dense/kernel/Adam"
  op: "VarHandleOp"
  attr {
    key: "_class"
    value {
      list {
        s: "loc:@km_disable_scope_1/dense/kernel"
      }
    }
  }
  attr {
    key: "_output_shapes"
    value {
      list {
        shape {
        }
      }
    }
  }
  attr {
    key: "container"
    value {
      s: ""
    }
  }
  attr {
    key: "dtype"
    value {
      type: DT_FLOAT
    }
  }
  attr {
    key: "shape"
    value {
      shape {
        dim {
          size: 784
        }
        dim {
          size: 500
        }
      }
    }
  }
  attr {
    key: "shared_name"
    value {
      s: "km_disable_scope_1/dense/kernel/Adam"
    }
  }
  experimental_debug_info {
  }
}
node {
  name: "km_disable_scope_1/dense/kernel/Adam/IsInitialized/VarIsInitializedOp"
  op: "VarIsInitializedOp"
  input: "km_disable_scope_1/dense/kernel/Adam"
  attr {
    key: "_class"
    value {
      list {
        s: "loc:@km_disable_scope_1/dense/kernel"
      }
    }
  }
  attr {
    key: "_output_shapes"
    value {
      list {
        shape {
        }
      }
    }
  }
  experimental_debug_info {
  }
}
node {
  name: "km_disable_scope_1/dense/kernel/Adam/Assign"
  op: "AssignVariableOp"
  input: "km_disable_scope_1/dense/kernel/Adam"
  input: "km_disable_scope_1/dense/kernel/Adam/Initializer/zeros"
  attr {
    key: "dtype"
    value {
      type: DT_FLOAT
    }
  }
  experimental_debug_info {
  }
}
node {
  name: "km_disable_scope_1/dense/kernel/Adam/Read/ReadVariableOp"
  op: "ReadVariableOp"
  input: "km_disable_scope_1/dense/kernel/Adam"
  attr {
    key: "_class"
    value {
      list {
        s: "loc:@km_disable_scope_1/dense/kernel"
      }
    }
  }
  attr {
    key: "_output_shapes"
    value {
      list {
        shape {
          dim {
            size: 784
          }
          dim {
            size: 500
          }
        }
      }
    }
  }
  attr {
    key: "dtype"
    value {
      type: DT_FLOAT
    }
  }
  experimental_debug_info {
  }
}
node {
  name: "km_disable_scope_1/dense/kernel/Adam_1/Initializer/zeros/shape_as_tensor"
  op: "Const"
  attr {
    key: "_class"
    value {
      list {
        s: "loc:@km_disable_scope_1/dense/kernel"
      }
    }
  }
  attr {
    key: "_output_shapes"
    value {
      list {
        shape {
          dim {
            size: 2
          }
        }
      }
    }
  }
  attr {
    key: "dtype"
    value {
      type: DT_INT32
    }
  }
  attr {
    key: "value"
    value {
      tensor {
        dtype: DT_INT32
        tensor_shape {
          dim {
            size: 2
          }
        }
        tensor_content: "\020\003\000\000\364\001\000\000"
      }
    }
  }
  experimental_debug_info {
  }
}
node {
  name: "km_disable_scope_1/dense/kernel/Adam_1/Initializer/zeros/Const"
  op: "Const"
  attr {
    key: "_class"
    value {
      list {
        s: "loc:@km_disable_scope_1/dense/kernel"
      }
    }
  }
  attr {
    key: "_output_shapes"
    value {
      list {
        shape {
        }
      }
    }
  }
  attr {
    key: "dtype"
    value {
      type: DT_FLOAT
    }
  }
  attr {
    key: "value"
    value {
      tensor {
        dtype: DT_FLOAT
        tensor_shape {
        }
        float_val: 0.0
      }
    }
  }
  experimental_debug_info {
  }
}
node {
  name: "km_disable_scope_1/dense/kernel/Adam_1/Initializer/zeros"
  op: "Fill"
  input: "km_disable_scope_1/dense/kernel/Adam_1/Initializer/zeros/shape_as_tensor"
  input: "km_disable_scope_1/dense/kernel/Adam_1/Initializer/zeros/Const"
  attr {
    key: "T"
    value {
      type: DT_FLOAT
    }
  }
  attr {
    key: "_class"
    value {
      list {
        s: "loc:@km_disable_scope_1/dense/kernel"
      }
    }
  }
  attr {
    key: "_output_shapes"
    value {
      list {
        shape {
          dim {
            size: 784
          }
          dim {
            size: 500
          }
        }
      }
    }
  }
  attr {
    key: "index_type"
    value {
      type: DT_INT32
    }
  }
  experimental_debug_info {
  }
}
node {
  name: "km_disable_scope_1/dense/kernel/Adam_1"
  op: "VarHandleOp"
  attr {
    key: "_class"
    value {
      list {
        s: "loc:@km_disable_scope_1/dense/kernel"
      }
    }
  }
  attr {
    key: "_output_shapes"
    value {
      list {
        shape {
        }
      }
    }
  }
  attr {
    key: "container"
    value {
      s: ""
    }
  }
  attr {
    key: "dtype"
    value {
      type: DT_FLOAT
    }
  }
  attr {
    key: "shape"
    value {
      shape {
        dim {
          size: 784
        }
        dim {
          size: 500
        }
      }
    }
  }
  attr {
    key: "shared_name"
    value {
      s: "km_disable_scope_1/dense/kernel/Adam_1"
    }
  }
  experimental_debug_info {
  }
}
node {
  name: "km_disable_scope_1/dense/kernel/Adam_1/IsInitialized/VarIsInitializedOp"
  op: "VarIsInitializedOp"
  input: "km_disable_scope_1/dense/kernel/Adam_1"
  attr {
    key: "_class"
    value {
      list {
        s: "loc:@km_disable_scope_1/dense/kernel"
      }
    }
  }
  attr {
    key: "_output_shapes"
    value {
      list {
        shape {
        }
      }
    }
  }
  experimental_debug_info {
  }
}
node {
  name: "km_disable_scope_1/dense/kernel/Adam_1/Assign"
  op: "AssignVariableOp"
  input: "km_disable_scope_1/dense/kernel/Adam_1"
  input: "km_disable_scope_1/dense/kernel/Adam_1/Initializer/zeros"
  attr {
    key: "dtype"
    value {
      type: DT_FLOAT
    }
  }
  experimental_debug_info {
  }
}
node {
  name: "km_disable_scope_1/dense/kernel/Adam_1/Read/ReadVariableOp"
  op: "ReadVariableOp"
  input: "km_disable_scope_1/dense/kernel/Adam_1"
  attr {
    key: "_class"
    value {
      list {
        s: "loc:@km_disable_scope_1/dense/kernel"
      }
    }
  }
  attr {
    key: "_output_shapes"
    value {
      list {
        shape {
          dim {
            size: 784
          }
          dim {
            size: 500
          }
        }
      }
    }
  }
  attr {
    key: "dtype"
    value {
      type: DT_FLOAT
    }
  }
  experimental_debug_info {
  }
}
node {
  name: "km_disable_scope_1/dense/bias/Adam/Initializer/zeros"
  op: "Const"
  attr {
    key: "_class"
    value {
      list {
        s: "loc:@km_disable_scope_1/dense/bias"
      }
    }
  }
  attr {
    key: "_output_shapes"
    value {
      list {
        shape {
          dim {
            size: 500
          }
        }
      }
    }
  }
  attr {
    key: "dtype"
    value {
      type: DT_FLOAT
    }
  }
  attr {
    key: "value"
    value {
      tensor {
        dtype: DT_FLOAT
        tensor_shape {
          dim {
            size: 500
          }
        }
        float_val: 0.0
      }
    }
  }
  experimental_debug_info {
  }
}
node {
  name: "km_disable_scope_1/dense/bias/Adam"
  op: "VarHandleOp"
  attr {
    key: "_class"
    value {
      list {
        s: "loc:@km_disable_scope_1/dense/bias"
      }
    }
  }
  attr {
    key: "_output_shapes"
    value {
      list {
        shape {
        }
      }
    }
  }
  attr {
    key: "container"
    value {
      s: ""
    }
  }
  attr {
    key: "dtype"
    value {
      type: DT_FLOAT
    }
  }
  attr {
    key: "shape"
    value {
      shape {
        dim {
          size: 500
        }
      }
    }
  }
  attr {
    key: "shared_name"
    value {
      s: "km_disable_scope_1/dense/bias/Adam"
    }
  }
  experimental_debug_info {
  }
}
node {
  name: "km_disable_scope_1/dense/bias/Adam/IsInitialized/VarIsInitializedOp"
  op: "VarIsInitializedOp"
  input: "km_disable_scope_1/dense/bias/Adam"
  attr {
    key: "_class"
    value {
      list {
        s: "loc:@km_disable_scope_1/dense/bias"
      }
    }
  }
  attr {
    key: "_output_shapes"
    value {
      list {
        shape {
        }
      }
    }
  }
  experimental_debug_info {
  }
}
node {
  name: "km_disable_scope_1/dense/bias/Adam/Assign"
  op: "AssignVariableOp"
  input: "km_disable_scope_1/dense/bias/Adam"
  input: "km_disable_scope_1/dense/bias/Adam/Initializer/zeros"
  attr {
    key: "dtype"
    value {
      type: DT_FLOAT
    }
  }
  experimental_debug_info {
  }
}
node {
  name: "km_disable_scope_1/dense/bias/Adam/Read/ReadVariableOp"
  op: "ReadVariableOp"
  input: "km_disable_scope_1/dense/bias/Adam"
  attr {
    key: "_class"
    value {
      list {
        s: "loc:@km_disable_scope_1/dense/bias"
      }
    }
  }
  attr {
    key: "_output_shapes"
    value {
      list {
        shape {
          dim {
            size: 500
          }
        }
      }
    }
  }
  attr {
    key: "dtype"
    value {
      type: DT_FLOAT
    }
  }
  experimental_debug_info {
  }
}
node {
  name: "km_disable_scope_1/dense/bias/Adam_1/Initializer/zeros"
  op: "Const"
  attr {
    key: "_class"
    value {
      list {
        s: "loc:@km_disable_scope_1/dense/bias"
      }
    }
  }
  attr {
    key: "_output_shapes"
    value {
      list {
        shape {
          dim {
            size: 500
          }
        }
      }
    }
  }
  attr {
    key: "dtype"
    value {
      type: DT_FLOAT
    }
  }
  attr {
    key: "value"
    value {
      tensor {
        dtype: DT_FLOAT
        tensor_shape {
          dim {
            size: 500
          }
        }
        float_val: 0.0
      }
    }
  }
  experimental_debug_info {
  }
}
node {
  name: "km_disable_scope_1/dense/bias/Adam_1"
  op: "VarHandleOp"
  attr {
    key: "_class"
    value {
      list {
        s: "loc:@km_disable_scope_1/dense/bias"
      }
    }
  }
  attr {
    key: "_output_shapes"
    value {
      list {
        shape {
        }
      }
    }
  }
  attr {
    key: "container"
    value {
      s: ""
    }
  }
  attr {
    key: "dtype"
    value {
      type: DT_FLOAT
    }
  }
  attr {
    key: "shape"
    value {
      shape {
        dim {
          size: 500
        }
      }
    }
  }
  attr {
    key: "shared_name"
    value {
      s: "km_disable_scope_1/dense/bias/Adam_1"
    }
  }
  experimental_debug_info {
  }
}
node {
  name: "km_disable_scope_1/dense/bias/Adam_1/IsInitialized/VarIsInitializedOp"
  op: "VarIsInitializedOp"
  input: "km_disable_scope_1/dense/bias/Adam_1"
  attr {
    key: "_class"
    value {
      list {
        s: "loc:@km_disable_scope_1/dense/bias"
      }
    }
  }
  attr {
    key: "_output_shapes"
    value {
      list {
        shape {
        }
      }
    }
  }
  experimental_debug_info {
  }
}
node {
  name: "km_disable_scope_1/dense/bias/Adam_1/Assign"
  op: "AssignVariableOp"
  input: "km_disable_scope_1/dense/bias/Adam_1"
  input: "km_disable_scope_1/dense/bias/Adam_1/Initializer/zeros"
  attr {
    key: "dtype"
    value {
      type: DT_FLOAT
    }
  }
  experimental_debug_info {
  }
}
node {
  name: "km_disable_scope_1/dense/bias/Adam_1/Read/ReadVariableOp"
  op: "ReadVariableOp"
  input: "km_disable_scope_1/dense/bias/Adam_1"
  attr {
    key: "_class"
    value {
      list {
        s: "loc:@km_disable_scope_1/dense/bias"
      }
    }
  }
  attr {
    key: "_output_shapes"
    value {
      list {
        shape {
          dim {
…
      input: "^Assert/Assert"
      attr {
        key: "_output_shapes"
        value {
          list {
            shape {
              dim {
                size: -1
              }
              dim {
                size: -1
              }
              dim {
                size: -1
              }
              dim {
                size: 3
              }
            }
          }
        }
      }
      experimental_debug_info {
        original_node_names: "DecodeGif"
      }
    }
    node_def {
      name: "Identity"
      op: "Identity"
      input: "DecodeGif:image:0"
      attr {
        key: "T"
        value {
          type: DT_UINT8
        }
      }
      attr {
        key: "_output_shapes"
        value {
          list {
            shape {
              dim {
                size: -1
              }
              dim {
                size: -1
              }
              dim {
                size: -1
              }
              dim {
                size: 3
              }
            }
          }
        }
      }
      experimental_debug_info {
        original_node_names: "Identity"
      }
    }
    node_def {
      name: "Identity_1"
      op: "Identity"
      input: "Identity:output:0"
      input: "^Assert/Assert"
      attr {
        key: "T"
        value {
          type: DT_UINT8
        }
      }
      attr {
        key: "_output_shapes"
        value {
          list {
            shape {
              dim {
                size: -1
              }
              dim {
                size: -1
              }
              dim {
                size: -1
              }
              dim {
                size: 3
              }
            }
          }
        }
      }
      experimental_debug_info {
        original_node_names: "Identity_1"
      }
    }
    ret {
      key: "identity_1"
      value: "Identity_1:output:0"
    }
    attr {
      key: "_input_shapes"
      value {
        list {
          shape {
          }
        }
      }
    }
    control_ret {
      key: "Assert/Assert"
      value: "Assert/Assert"
    }
    arg_attr {
      key: 0
      value {
        attr {
          key: "_output_shapes"
          value {
            list {
              shape {
              }
            }
          }
        }
      }
    }
  }
  function {
    signature {
      name: "decode_image_cond_jpeg_true_73"
      input_arg {
        name: "decodejpeg_reshape"
        type: DT_STRING
      }
      input_arg {
        name: "placeholder"
        type: DT_STRING
      }
      output_arg {
        name: "identity_1"
        type: DT_UINT8
      }
      is_stateful: true
      control_output: "Assert/Assert"
    }
    node_def {
      name: "check_jpeg_channels/x"
      op: "Const"
      attr {
        key: "_output_shapes"
        value {
          list {
            shape {
            }
          }
        }
      }
      attr {
        key: "dtype"
        value {
          type: DT_INT32
        }
      }
      attr {
        key: "value"
        value {
          tensor {
            dtype: DT_INT32
            tensor_shape {
            }
            int_val: 1
          }
        }
      }
      experimental_debug_info {
        original_node_names: "check_jpeg_channels/x"
      }
    }
    node_def {
      name: "check_jpeg_channels/y"
      op: "Const"
      attr {
        key: "_output_shapes"
        value {
          list {
            shape {
            }
          }
        }
      }
      attr {
        key: "dtype"
        value {
          type: DT_INT32
        }
      }
      attr {
        key: "value"
        value {
          tensor {
            dtype: DT_INT32
            tensor_shape {
            }
            int_val: 4
          }
        }
      }
      experimental_debug_info {
        original_node_names: "check_jpeg_channels/y"
      }
    }
    node_def {
      name: "check_jpeg_channels"
      op: "NotEqual"
      input: "check_jpeg_channels/x:output:0"
      input: "check_jpeg_channels/y:output:0"
      attr {
        key: "T"
        value {
          type: DT_INT32
        }
      }
      attr {
        key: "_output_shapes"
        value {
          list {
            shape {
            }
          }
        }
      }
      attr {
        key: "incompatible_shape_error"
        value {
          b: true
        }
      }
      experimental_debug_info {
        original_node_names: "check_jpeg_channels"
      }
    }
    node_def {
      name: "Assert/Const"
      op: "Const"
      attr {
        key: "_output_shapes"
        value {
          list {
            shape {
            }
          }
        }
      }
      attr {
        key: "dtype"
        value {
          type: DT_STRING
        }
      }
      attr {
        key: "value"
        value {
          tensor {
            dtype: DT_STRING
            tensor_shape {
            }
            string_val: "Channels must be in (None, 0, 1, 3) when decoding JPEG images"
          }
        }
      }
      experimental_debug_info {
        original_node_names: "Assert/Const"
      }
    }
    node_def {
      name: "Assert/Assert/data_0"
      op: "Const"
      attr {
        key: "_output_shapes"
        value {
          list {
            shape {
            }
          }
        }
      }
      attr {
        key: "dtype"
        value {
          type: DT_STRING
        }
      }
      attr {
        key: "value"
        value {
          tensor {
            dtype: DT_STRING
            tensor_shape {
            }
            string_val: "Channels must be in (None, 0, 1, 3) when decoding JPEG images"
          }
        }
      }
      experimental_debug_info {
        original_node_names: "Assert/Assert/data_0"
      }
    }
    node_def {
      name: "Assert/Assert"
      op: "Assert"
      input: "check_jpeg_channels:z:0"
      input: "Assert/Assert/data_0:output:0"
      attr {
        key: "T"
        value {
          list {
            type: DT_STRING
          }
        }
      }
      attr {
        key: "_output_shapes"
        value {
          list {
          }
        }
      }
      attr {
        key: "summarize"
        value {
          i: 3
        }
      }
      experimental_debug_info {
        original_node_names: "Assert/Assert"
      }
    }
    node_def {
      name: "DecodeJpeg"
      op: "DecodeJpeg"
      input: "decodejpeg_reshape"
      input: "^Assert/Assert"
      attr {
        key: "_output_shapes"
        value {
          list {
            shape {
              dim {
                size: -1
              }
              dim {
                size: -1
              }
              dim {
                size: 1
              }
            }
          }
        }
      }
      attr {
        key: "acceptable_fraction"
        value {
          f: 1.0
        }
      }
      attr {
        key: "channels"
        value {
          i: 1
        }
      }
      attr {
        key: "dct_method"
        value {
          s: ""
        }
      }
      attr {
        key: "fancy_upscaling"
        value {
          b: true
        }
      }
      attr {
        key: "ratio"
        value {
          i: 1
        }
      }
      attr {
        key: "try_recover_truncated"
        value {
          b: false
        }
      }
      experimental_debug_info {
        original_node_names: "DecodeJpeg"
      }
    }
    node_def {
      name: "Identity"
      op: "Identity"
      input: "DecodeJpeg:image:0"
      attr {
        key: "T"
        value {
          type: DT_UINT8
        }
      }
      attr {
        key: "_output_shapes"
        value {
          list {
            shape {
              dim {
                size: -1
              }
              dim {
                size: -1
              }
              dim {
                size: 1
              }
            }
          }
        }
      }
      experimental_debug_info {
        original_node_names: "Identity"
      }
    }
    node_def {
      name: "Identity_1"
      op: "Identity"
      input: "Identity:output:0"
      input: "^Assert/Assert"
      attr {
        key: "T"
        value {
          type: DT_UINT8
        }
      }
      attr {
        key: "_output_shapes"
        value {
          list {
            shape {
              dim {
                size: -1
              }
              dim {
                size: -1
              }
              dim {
                size: 1
              }
            }
          }
        }
      }
      experimental_debug_info {
        original_node_names: "Identity_1"
      }
    }
    ret {
      key: "identity_1"
      value: "Identity_1:output:0"
    }
    attr {
      key: "_input_shapes"
      value {
        list {
          shape {
          }
          shape {
          }
        }
      }
    }
    control_ret {
      key: "Assert/Assert"
      value: "Assert/Assert"
    }
    arg_attr {
      key: 0
      value {
        attr {
          key: "_output_shapes"
          value {
            list {
              shape {
              }
            }
          }
        }
      }
    }
    arg_attr {
      key: 1
      value {
        attr {
          key: "_output_shapes"
          value {
            list {
              shape {
              }
            }
          }
        }
      }
    }
  }
  function {
    signature {
      name: "global_step_cond_true_6"
      input_arg {
        name: "read_readvariableop_global_step"
        type: DT_RESOURCE
      }
      input_arg {
        name: "placeholder"
        type: DT_INT64
      }
      output_arg {
        name: "identity"
        type: DT_INT64
      }
      is_stateful: true
    }
    node_def {
      name: "Read/ReadVariableOp"
      op: "ReadVariableOp"
      input: "read_readvariableop_global_step"
      attr {
        key: "_output_shapes"
        value {
          list {
            shape {
            }
          }
        }
      }
      attr {
        key: "dtype"
        value {
          type: DT_INT64
        }
      }
      experimental_debug_info {
        original_node_names: "Read/ReadVariableOp"
      }
    }
    node_def {
      name: "Identity"
      op: "Identity"
      input: "Read/ReadVariableOp:value:0"
      attr {
        key: "T"
        value {
          type: DT_INT64
        }
      }
      attr {
        key: "_output_shapes"
        value {
          list {
            shape {
            }
          }
        }
      }
      experimental_debug_info {
        original_node_names: "Identity"
      }
    }
    ret {
      key: "identity"
      value: "Identity:output:0"
    }
    attr {
      key: "_input_shapes"
      value {
        list {
          shape {
            unknown_rank: true
          }
          shape {
          }
        }
      }
    }
    arg_attr {
      key: 0
      value {
        attr {
          key: "_output_shapes"
          value {
            list {
              shape {
              }
            }
          }
        }
      }
    }
    arg_attr {
      key: 1
      value {
        attr {
          key: "_output_shapes"
          value {
            list {
              shape {
              }
            }
          }
        }
      }
    }
  }
  function {
    signature {
      name: "__inference_Dataset_interleave_classfunctools.partial_179"
      input_arg {
        name: "args_0"
        type: DT_STRING
      }
      input_arg {
        name: "args_1"
        type: DT_STRING
      }
      input_arg {
        name: "args_2"
        type: DT_INT64
      }
      input_arg {
        name: "args_3"
        type: DT_INT64
      }
      output_arg {
        name: "identity"
        type: DT_VARIANT
      }
      is_stateful: true
      control_output: "TensorSliceDataset"
    }
    node_def {
      name: "flat_filenames/shape"
      op: "Const"
      attr {
        key: "_output_shapes"
        value {
          list {
            shape {
              dim {
                size: 1
              }
            }
          }
        }
      }
      attr {
        key: "dtype"
        value {
          type: DT_INT32
        }
      }
      attr {
        key: "value"
        value {
          tensor {
            dtype: DT_INT32
            tensor_shape {
              dim {
                size: 1
              }
            }
            int_val: -1
          }
        }
      }
      experimental_debug_info {
        original_node_names: "flat_filenames/shape"
      }
    }
    node_def {
      name: "flat_filenames"
      op: "Reshape"
      input: "args_0"
      input: "flat_filenames/shape:output:0"
      attr {
        key: "T"
        value {
          type: DT_STRING
        }
      }
      attr {
        key: "Tshape"
        value {
          type: DT_INT32
        }
      }
      attr {
        key: "_output_shapes"
        value {
          list {
            shape {
              dim {
                size: 1
              }
            }
          }
        }
      }
      experimental_debug_info {
        original_node_names: "flat_filenames"
      }
    }
    node_def {
      name: "TensorSliceDataset"
      op: "TensorSliceDataset"
      input: "flat_filenames:output:0"
      attr {
        key: "Toutput_types"
        value {
          list {
            type: DT_STRING
          }
        }
      }
      attr {
        key: "_output_shapes"
        value {
          list {
            shape {
            }
          }
        }
      }
      attr {
        key: "output_shapes"
        value {
          list {
            shape {
            }
          }
        }
      }
      experimental_debug_info {
        original_node_names: "TensorSliceDataset"
      }
    }
    node_def {
      name: "FlatMapDataset"
      op: "FlatMapDataset"
      input: "TensorSliceDataset:handle:0"
      attr {
        key: "Targuments"
        value {
          list {
          }
        }
      }
      attr {
        key: "_output_shapes"
        value {
          list {
            shape {
            }
          }
        }
      }
      attr {
        key: "f"
        value {
          func {
            name: "__inference_Dataset_flat_map_read_one_file_176"
          }
        }
      }
      attr {
        key: "output_shapes"
        value {
          list {
            shape {
            }
          }
        }
      }
      attr {
        key: "output_types"
        value {
          list {
            type: DT_STRING
          }
        }
      }
      experimental_debug_info {
        original_node_names: "FlatMapDataset"
      }
    }
    node_def {
      name: "Identity"
      op: "Identity"
      input: "FlatMapDataset:handle:0"
      input: "^TensorSliceDataset"
      attr {
        key: "T"
        value {
          type: DT_VARIANT
        }
      }
      attr {
        key: "_output_shapes"
        value {
          list {
            shape {
            }
          }
        }
      }
      experimental_debug_info {
        original_node_names: "Identity"
      }
    }
    ret {
      key: "identity"
      value: "Identity:output:0"
    }
    attr {
      key: "_input_shapes"
      value {
        list {
          shape {
          }
          shape {
          }
          shape {
          }
          shape {
          }
        }
      }
    }
    control_ret {
      key: "TensorSliceDataset"
      value: "TensorSliceDataset"
    }
    arg_attr {
      key: 0
      value {
        attr {
          key: "_output_shapes"
          value {
            list {
              shape {
              }
            }
          }
        }
        attr {
          key: "_user_specified_name"
          value {
            s: "args_0"
          }
        }
      }
    }
    arg_attr {
      key: 1
      value {
        attr {
          key: "_output_shapes"
          value {
            list {
              shape {
              }
            }
          }
        }
        attr {
          key: "_user_specified_name"
          value {
            s: "args_1"
          }
        }
      }
    }
    arg_attr {
      key: 2
      value {
        attr {
          key: "_output_shapes"
          value {
            list {
              shape {
              }
            }
          }
        }
        attr {
          key: "_user_specified_name"
          value {
            s: "args_2"
          }
        }
      }
    }
    arg_attr {
      key: 3
      value {
        attr {
          key: "_output_shapes"
          value {
            list {
              shape {
              }
            }
          }
        }
        attr {
          key: "_user_specified_name"
          value {
            s: "args_3"
          }
        }
      }
    }
  }
  function {
    signature {
      name: "decode_image_cond_jpeg_true_210"
      input_arg {
        name: "decodejpeg_reshape"
        type: DT_STRING
      }
      input_arg {
        name: "placeholder"
        type: DT_STRING
      }
      output_arg {
        name: "identity_1"
        type: DT_UINT8
      }
      is_stateful: true
      control_output: "Assert/Assert"
    }
    node_def {
      name: "check_jpeg_channels/x"
      op: "Const"
      attr {
        key: "_output_shapes"
        value {
          list {
            shape {
            }
          }
        }
      }
      attr {
        key: "dtype"
        value {
          type: DT_INT32
        }
      }
      attr {
        key: "value"
        value {
          tensor {
            dtype: DT_INT32
            tensor_shape {
            }
            int_val: 1
          }
        }
      }
      experimental_debug_info {
        original_node_names: "check_jpeg_channels/x"
      }
    }
    node_def {
      name: "check_jpeg_channels/y"
      op: "Const"
      attr {
        key: "_output_shapes"
        value {
          list {
            shape {
            }
          }
        }
      }
      attr {
        key: "dtype"
        value {
          type: DT_INT32
        }
      }
      attr {
        key: "value"
        value {
          tensor {
            dtype: DT_INT32
            tensor_shape {
            }
            int_val: 4
          }
        }
      }
      experimental_debug_info {
        original_node_names: "check_jpeg_channels/y"
      }
    }
    node_def {
      name: "check_jpeg_channels"
      op: "NotEqual"
      input: "check_jpeg_channels/x:output:0"
      input: "check_jpeg_channels/y:output:0"
      attr {
        key: "T"
        value {
          type: DT_INT32
        }
      }
      attr {
        key: "_output_shapes"
        value {
          list {
            shape {
            }
          }
        }
      }
      attr {
        key: "incompatible_shape_error"
        value {
          b: true
        }
      }
      experimental_debug_info {
        original_node_names: "check_jpeg_channels"
      }
    }
    node_def {
      name: "Assert/Const"
      op: "Const"
      attr {
        key: "_output_shapes"
        value {
          list {
            shape {
            }
          }
        }
      }
      attr {
        key: "dtype"
        value {
          type: DT_STRING
        }
      }
      attr {
        key: "value"
        value {
          tensor {
            dtype: DT_STRING
            tensor_shape {
            }
            string_val: "Channels must be in (None, 0, 1, 3) when decoding JPEG images"
          }
        }
      }
      experimental_debug_info {
        original_node_names: "Assert/Const"
      }
    }
    node_def {
      name: "Assert/Assert/data_0"
      op: "Const"
      attr {
        key: "_output_shapes"
        value {
          list {
            shape {
            }
          }
        }
      }
      attr {
        key: "dtype"
        value {
          type: DT_STRING
        }
      }
      attr {
        key: "value"
        value {
          tensor {
            dtype: DT_STRING
            tensor_shape {
            }
            string_val: "Channels must be in (None, 0, 1, 3) when decoding JPEG images"
          }
        }
      }
      experimental_debug_info {
        original_node_names: "Assert/Assert/data_0"
      }
    }
    node_def {
      name: "Assert/Assert"
      op: "Assert"
      input: "check_jpeg_channels:z:0"
      input: "Assert/Assert/data_0:output:0"
      attr {
        key: "T"
        value {
          list {
            type: DT_STRING
          }
        }
      }
      attr {
        key: "_output_shapes"
        value {
          list {
          }
        }
      }
      attr {
        key: "summarize"
        value {
          i: 3
        }
      }
      experimental_debug_info {
        original_node_names: "Assert/Assert"
      }
    }
    node_def {
      name: "DecodeJpeg"
      op: "DecodeJpeg"
      input: "decodejpeg_reshape"
      input: "^Assert/Assert"
      attr {
        key: "_output_shapes"
        value {
          list {
            shape {
              dim {
                size: -1
              }
              dim {
                size: -1
              }
              dim {
                size: 1
              }
            }
          }
        }
      }
      attr {
        key: "acceptable_fraction"
        value {
          f: 1.0
        }
      }
      attr {
        key: "channels"
        value {
          i: 1
        }
      }
      attr {
        key: "dct_method"
        value {
          s: ""
        }
      }
      attr {
        key: "fancy_upscaling"
        value {
          b: true
        }
      }
      attr {
        key: "ratio"
        value {
          i: 1
        }
      }
      attr {
        key: "try_recover_truncated"
        value {
          b: false
        }
      }
      experimental_debug_info {
        original_node_names: "DecodeJpeg"
      }
    }
    node_def {
      name: "Identity"
      op: "Identity"
      input: "DecodeJpeg:image:0"
      attr {
        key: "T"
        value {
          type: DT_UINT8
        }
      }
      attr {
        key: "_output_shapes"
        value {
          list {
            shape {
              dim {
                size: -1
              }
              dim {
                size: -1
              }
              dim {
                size: 1
              }
            }
          }
        }
      }
      experimental_debug_info {
        original_node_names: "Identity"
      }
    }
    node_def {
      name: "Identity_1"
      op: "Identity"
      input: "Identity:output:0"
      input: "^Assert/Assert"
      attr {
        key: "T"
        value {
          type: DT_UINT8
        }
      }
      attr {
        key: "_output_shapes"
        value {
          list {
            shape {
              dim {
                size: -1
              }
              dim {
                size: -1
              }
              dim {
                size: 1
              }
            }
          }
        }
      }
      experimental_debug_info {
        original_node_names: "Identity_1"
      }
    }
    ret {
      key: "identity_1"
      value: "Identity_1:output:0"
    }
    attr {
      key: "_input_shapes"
      value {
        list {
          shape {
          }
          shape {
          }
        }
      }
    }
    control_ret {
      key: "Assert/Assert"
      value: "Assert/Assert"
    }
    arg_attr {
      key: 0
      value {
        attr {
          key: "_output_shapes"
          value {
            list {
              shape {
              }
            }
          }
        }
      }
    }
    arg_attr {
      key: 1
      value {
        attr {
          key: "_output_shapes"
          value {
            list {
              shape {
              }
            }
          }
        }
      }
    }
  }
  function {
    signature {
      name: "cond_gif_true_240"
      input_arg {
        name: "decodegif_reshape"
        type: DT_STRING
      }
      output_arg {
        name: "identity_1"
        type: DT_UINT8
      }
      is_stateful: true
      control_output: "Assert/Assert"
    }
    node_def {
      name: "check_gif_channels/x"
      op: "Const"
      attr {
        key: "_output_shapes"
        value {
          list {
            shape {
            }
          }
        }
      }
      attr {
        key: "dtype"
        value {
          type: DT_INT32
        }
      }
      attr {
        key: "value"
        value {
          tensor {
            dtype: DT_INT32
            tensor_shape {
            }
            int_val: 1
          }
        }
      }
      experimental_debug_info {
        original_node_names: "check_gif_channels/x"
      }
    }
    node_def {
      name: "check_gif_channels/y"
      op: "Const"
      attr {
        key: "_output_shapes"
        value {
          list {
            shape {
            }
          }
        }
      }
      attr {
        key: "dtype"
        value {
          type: DT_INT32
        }
      }
      attr {
        key: "value"
        value {
          tensor {
            dtype: DT_INT32
            tensor_shape {
            }
            int_val: 1
          }
        }
      }
      experimental_debug_info {
        original_node_names: "check_gif_channels/y"
      }
    }
    node_def {
      name: "check_gif_channels"
      op: "NotEqual"
      input: "check_gif_channels/x:output:0"
      input: "check_gif_channels/y:output:0"
      attr {
        key: "T"
        value {
          type: DT_INT32
        }
      }
      attr {
        key: "_output_shapes"
        value {
          list {
            shape {
            }
          }
        }
      }
      attr {
        key: "incompatible_shape_error"
        value {
          b: true
        }
      }
      experimental_debug_info {
        original_node_names: "check_gif_channels"
      }
    }
    node_def {
      name: "check_gif_channels_1/x"
      op: "Const"
      attr {
        key: "_output_shapes"
        value {
          list {
            shape {
            }
          }
        }
      }
      attr {
        key: "dtype"
        value {
          type: DT_INT32
        }
      }
      attr {
        key: "value"
        value {
          tensor {
            dtype: DT_INT32
            tensor_shape {
            }
            int_val: 1
          }
        }
      }
      experimental_debug_info {
        original_node_names: "check_gif_channels_1/x"
      }
    }
    node_def {
      name: "check_gif_channels_1/y"
      op: "Const"
      attr {
        key: "_output_shapes"
        value {
          list {
            shape {
            }
          }
        }
      }
      attr {
        key: "dtype"
        value {
          type: DT_INT32
        }
      }
      attr {
        key: "value"
        value {
          tensor {
            dtype: DT_INT32
            tensor_shape {
            }
            int_val: 4
          }
        }
      }
      experimental_debug_info {
        original_node_names: "check_gif_channels_1/y"
      }
    }
    node_def {
      name: "check_gif_channels_1"
      op: "NotEqual"
      input: "check_gif_channels_1/x:output:0"
      input: "check_gif_channels_1/y:output:0"
      attr {
        key: "T"
        value {
          type: DT_INT32
        }
      }
      attr {
        key: "_output_shapes"
        value {
          list {
            shape {
            }
          }
        }
      }
      attr {
        key: "incompatible_shape_error"
        value {
          b: true
        }
      }
      experimental_debug_info {
        original_node_names: "check_gif_channels_1"
      }
    }
    node_def {
      name: "LogicalAnd"
      op: "LogicalAnd"
      input: "check_gif_channels:z:0"
      input: "check_gif_channels_1:z:0"
      attr {
        key: "_output_shapes"
        value {
          list {
            shape {
            }
          }
        }
      }
      experimental_debug_info {
        original_node_names: "LogicalAnd"
      }
    }
    node_def {
      name: "Assert/Const"
      op: "Const"
      attr {
        key: "_output_shapes"
        value {
          list {
            shape {
            }
          }
        }
      }
      attr {
        key: "dtype"
        value {
          type: DT_STRING
        }
      }
      attr {
        key: "value"
        value {
          tensor {
            dtype: DT_STRING
            tensor_shape {
            }
            string_val: "Channels must be in (None, 0, 3) when decoding GIF images"
          }
        }
      }
      experimental_debug_info {
        original_node_names: "Assert/Const"
      }
    }
    node_def {
      name: "Assert/Assert/data_0"
      op: "Const"
      attr {
        key: "_output_shapes"
        value {
          list {
            shape {
            }
          }
        }
      }
      attr {
        key: "dtype"
        value {
          type: DT_STRING
        }
      }
      attr {
        key: "value"
        value {
          tensor {
            dtype: DT_STRING
            tensor_shape {
            }
            string_val: "Channels must be in (None, 0, 3) when decoding GIF images"
          }
        }
      }
      experimental_debug_info {
        original_node_names: "Assert/Assert/data_0"
      }
    }
    node_def {
      name: "Assert/Assert"
      op: "Assert"
      input: "LogicalAnd:z:0"
      input: "Assert/Assert/data_0:output:0"
      attr {
        key: "T"
        value {
          list {
            type: DT_STRING
          }
        }
      }
      attr {
        key: "_output_shapes"
        value {
          list {
          }
        }
      }
      attr {
        key: "summarize"
        value {
          i: 3
        }
      }
      experimental_debug_info {
        original_node_names: "Assert/Assert"
      }
    }
    node_def {
      name: "DecodeGif"
      op: "DecodeGif"
      input: "decodegif_reshape"
      input: "^Assert/Assert"
      attr {
        key: "_output_shapes"
        value {
          list {
            shape {
              dim {
                size: -1
              }
              dim {
                size: -1
              }
              dim {
                size: -1
              }
              dim {
                size: 3
              }
            }
          }
        }
      }
      experimental_debug_info {
        original_node_names: "DecodeGif"
      }
    }
    node_def {
      name: "Identity"
      op: "Identity"
      input: "DecodeGif:image:0"
      attr {
        key: "T"
        value {
          type: DT_UINT8
        }
      }
      attr {
        key: "_output_shapes"
        value {
          list {
            shape {
              dim {
                size: -1
              }
              dim {
                size: -1
              }
              dim {
                size: -1
              }
              dim {
                size: 3
              }
            }
          }
        }
      }
      experimental_debug_info {
        original_node_names: "Identity"
      }
    }
    node_def {
      name: "Identity_1"
      op: "Identity"
      input: "Identity:output:0"
      input: "^Assert/Assert"
      attr {
        key: "T"
        value {
          type: DT_UINT8
        }
      }
      attr {
        key: "_output_shapes"
        value {
          list {
            shape {
              dim {
                size: -1
              }
              dim {
                size: -1
              }
              dim {
                size: -1
              }
              dim {
                size: 3
              }
            }
          }
        }
      }
      experimental_debug_info {
        original_node_names: "Identity_1"
      }
    }
    ret {
      key: "identity_1"
      value: "Identity_1:output:0"
    }
    attr {
      key: "_input_shapes"
      value {
        list {
          shape {
          }
        }
      }
    }
    control_ret {
      key: "Assert/Assert"
      value: "Assert/Assert"
    }
    arg_attr {
      key: 0
      value {
        attr {
          key: "_output_shapes"
          value {
            list {
              shape {
              }
            }
          }
        }
      }
    }
  }
  function {
    signature {
      name: "__inference_Dataset_map_parse_and_decode_150"
      input_arg {
        name: "args_0"
        type: DT_STRING
      }
      output_arg {
        name: "identity"
        type: DT_UINT8
      }
      output_arg {
        name: "identity_1"
        type: DT_INT64
      }
      is_stateful: true
      control_output: "decode_image/cond_jpeg"
    }
    node_def {
      name: "ParseSingleExample/ParseExample/Const"
      op: "Const"
      attr {
        key: "_output_shapes"
        value {
          list {
            shape {
              dim {
              }
            }
          }
        }
      }
      attr {
        key: "dtype"
        value {
          type: DT_STRING
        }
      }
      attr {
        key: "value"
        value {
          tensor {
            dtype: DT_STRING
            tensor_shape {
              dim {
              }
            }
          }
        }
      }
      experimental_debug_info {
        original_node_names: "ParseSingleExample/ParseExample/Const"
      }
    }
    node_def {
      name: "ParseSingleExample/ParseExample/Const_1"
      op: "Const"
      attr {
        key: "_output_shapes"
        value {
          list {
            shape {
              dim {
              }
            }
          }
        }
      }
      attr {
        key: "dtype"
        value {
          type: DT_INT64
        }
      }
      attr {
        key: "value"
        value {
          tensor {
            dtype: DT_INT64
            tensor_shape {
              dim {
              }
            }
          }
        }
      }
      experimental_debug_info {
        original_node_names: "ParseSingleExample/ParseExample/Const_1"
      }
    }
    node_def {
      name: "ParseSingleExample/ParseExample/ParseExampleV2/names"
      op: "Const"
      attr {
        key: "_output_shapes"
        value {
          list {
            shape {
              dim {
              }
            }
          }
        }
      }
      attr {
        key: "dtype"
        value {
          type: DT_STRING
        }
      }
      attr {
        key: "value"
        value {
          tensor {
            dtype: DT_STRING
            tensor_shape {
              dim {
              }
            }
          }
        }
      }
      experimental_debug_info {
        original_node_names: "ParseSingleExample/ParseExample/ParseExampleV2/names"
      }
    }
    node_def {
      name: "ParseSingleExample/ParseExample/ParseExampleV2/sparse_keys"
      op: "Const"
      attr {
        key: "_output_shapes"
        value {
          list {
            shape {
              dim {
              }
            }
          }
        }
      }
      attr {
        key: "dtype"
        value {
          type: DT_STRING
        }
      }
      attr {
        key: "value"
        value {
          tensor {
            dtype: DT_STRING
            tensor_shape {
              dim {
              }
            }
          }
        }
      }
      experimental_debug_info {
        original_node_names: "ParseSingleExample/ParseExample/ParseExampleV2/sparse_keys"
      }
    }
    node_def {
      name: "ParseSingleExample/ParseExample/ParseExampleV2/dense_keys"
      op: "Const"
      attr {
        key: "_output_shapes"
        value {
          list {
            shape {
              dim {
                size: 2
              }
            }
          }
        }
      }
      attr {
        key: "dtype"
        value {
          type: DT_STRING
        }
      }
      attr {
        key: "value"
        value {
          tensor {
            dtype: DT_STRING
            tensor_shape {
              dim {
                size: 2
              }
            }
            string_val: "image"
            string_val: "label"
          }
        }
      }
      experimental_debug_info {
        original_node_names: "ParseSingleExample/ParseExample/ParseExampleV2/dense_keys"
      }
    }
    node_def {
      name: "ParseSingleExample/ParseExample/ParseExampleV2/ragged_keys"
      op: "Const"
      attr {
        key: "_output_shapes"
        value {
          list {
            shape {
              dim {
              }
            }
          }
        }
      }
      attr {
        key: "dtype"
        value {
          type: DT_STRING
        }
      }
      attr {
        key: "value"
        value {
          tensor {
            dtype: DT_STRING
            tensor_shape {
              dim {
              }
            }
          }
        }
      }
      experimental_debug_info {
        original_node_names: "ParseSingleExample/ParseExample/ParseExampleV2/ragged_keys"
      }
    }
    node_def {
      name: "ParseSingleExample/ParseExample/ParseExampleV2"
      op: "ParseExampleV2"
      input: "args_0"
      input: "ParseSingleExample/ParseExample/ParseExampleV2/names:output:0"
      input: "ParseSingleExample/ParseExample/ParseExampleV2/sparse_keys:output:0"
      input: "ParseSingleExample/ParseExample/ParseExampleV2/dense_keys:output:0"
      input: "ParseSingleExample/ParseExample/ParseExampleV2/ragged_keys:output:0"
      input: "ParseSingleExample/ParseExample/Const:output:0"
      input: "ParseSingleExample/ParseExample/Const_1:output:0"
      attr {
        key: "Tdense"
        value {
          list {
            type: DT_STRING
            type: DT_INT64
          }
        }
      }
      attr {
        key: "_output_shapes"
        value {
          list {
            shape {
            }
            shape {
            }
          }
        }
      }
      attr {
        key: "dense_shapes"
        value {
          list {
            shape {
            }
            shape {
            }
          }
        }
      }
      attr {
        key: "num_sparse"
        value {
          i: 0
        }
      }
      attr {
        key: "ragged_split_types"
        value {
          list {
          }
        }
      }
      attr {
        key: "ragged_value_types"
        value {
          list {
          }
        }
      }
      attr {
        key: "sparse_types"
        value {
          list {
          }
        }
      }
      experimental_debug_info {
        original_node_names: "ParseSingleExample/ParseExample/ParseExampleV2"
      }
    }
    node_def {
      name: "Reshape/shape"
      op: "Const"
      attr {
        key: "_output_shapes"
        value {
          list {
            shape {
              dim {
              }
            }
          }
        }
      }
      attr {
        key: "dtype"
        value {
          type: DT_INT32
        }
      }
      attr {
        key: "value"
        value {
          tensor {
            dtype: DT_INT32
            tensor_shape {
              dim {
              }
            }
          }
        }
      }
      experimental_debug_info {
        original_node_names: "Reshape/shape"
      }
    }
    node_def {
      name: "Reshape"
      op: "Reshape"
      input: "ParseSingleExample/ParseExample/ParseExampleV2:dense_values:0"
      input: "Reshape/shape:output:0"
      attr {
        key: "T"
        value {
          type: DT_STRING
        }
      }
      attr {
        key: "Tshape"
        value {
          type: DT_INT32
        }
      }
      attr {
        key: "_output_shapes"
        value {
          list {
            shape {
            }
          }
        }
      }
      experimental_debug_info {
        original_node_names: "Reshape"
      }
    }
    node_def {
      name: "Reshape_1/shape"
      op: "Const"
      attr {
        key: "_output_shapes"
        value {
          list {
            shape {
              dim {
              }
            }
          }
        }
      }
      attr {
        key: "dtype"
        value {
          type: DT_INT32
        }
      }
      attr {
        key: "value"
        value {
          tensor {
            dtype: DT_INT32
            tensor_shape {
              dim {
              }
            }
          }
        }
      }
      experimental_debug_info {
        original_node_names: "Reshape_1/shape"
      }
    }
    node_def {
      name: "Reshape_1"
      op: "Reshape"
      input: "ParseSingleExample/ParseExample/ParseExampleV2:dense_values:1"
      input: "Reshape_1/shape:output:0"
      attr {
        key: "T"
        value {
          type: DT_INT64
        }
      }
      attr {
        key: "Tshape"
        value {
          type: DT_INT32
        }
      }
      attr {
        key: "_output_shapes"
        value {
          list {
            shape {
            }
          }
        }
      }
      experimental_debug_info {
        original_node_names: "Reshape_1"
      }
    }
    node_def {
      name: "decode_image/Substr/pos"
      op: "Const"
      attr {
        key: "_output_shapes"
        value {
          list {
            shape {
            }
          }
        }
      }
      attr {
        key: "dtype"
        value {
          type: DT_INT32
        }
      }
      attr {
        key: "value"
        value {
          tensor {
            dtype: DT_INT32
            tensor_shape {
            }
            int_val: 0
          }
        }
      }
      experimental_debug_info {
        original_node_names: "decode_image/Substr/pos"
      }
    }
    node_def {
      name: "decode_image/Substr/len"
      op: "Const"
      attr {
        key: "_output_shapes"
        value {
          list {
            shape {
            }
          }
        }
      }
      attr {
        key: "dtype"
        value {
          type: DT_INT32
        }
      }
      attr {
        key: "value"
        value {
          tensor {
            dtype: DT_INT32
            tensor_shape {
            }
            int_val: 3
          }
        }
      }
      experimental_debug_info {
        original_node_names: "decode_image/Substr/len"
      }
    }
    node_def {
      name: "decode_image/Substr"
      op: "Substr"
      input: "Reshape:output:0"
      input: "decode_image/Substr/pos:output:0"
      input: "decode_image/Substr/len:output:0"
      attr {
        key: "T"
        value {
          type: DT_INT32
        }
      }
      attr {
        key: "_output_shapes"
        value {
          list {
            shape {
            }
          }
        }
      }
      attr {
        key: "unit"
        value {
          s: "BYTE"
        }
      }
      experimental_debug_info {
        original_node_names: "decode_image/Substr"
      }
    }
    node_def {
      name: "decode_image/is_jpeg/Substr/pos"
      op: "Const"
      attr {
        key: "_output_shapes"
        value {
          list {
            shape {
            }
          }
        }
      }
      attr {
        key: "dtype"
        value {
          type: DT_INT32
        }
      }
      attr {
        key: "value"
        value {
          tensor {
            dtype: DT_INT32
            tensor_shape {
            }
            int_val: 0
          }
        }
      }
      experimental_debug_info {
        original_node_names: "decode_image/is_jpeg/Substr/pos"
      }
    }
    node_def {
      name: "decode_image/is_jpeg/Substr/len"
      op: "Const"
      attr {
        key: "_output_shapes"
        value {
          list {
            shape {
            }
          }
        }
      }
      attr {
        key: "dtype"
        value {
          type: DT_INT32
        }
      }
      attr {
        key: "value"
        value {
          tensor {
            dtype: DT_INT32
            tensor_shape {
            }
            int_val: 3
          }
        }
      }
      experimental_debug_info {
        original_node_names: "decode_image/is_jpeg/Substr/len"
      }
    }
    node_def {
      name: "decode_image/is_jpeg/Substr"
      op: "Substr"
      input: "Reshape:output:0"
      input: "decode_image/is_jpeg/Substr/pos:output:0"
      input: "decode_image/is_jpeg/Substr/len:output:0"
      attr {
        key: "T"
        value {
          type: DT_INT32
        }
      }
      attr {
        key: "_output_shapes"
        value {
          list {
            shape {
            }
          }
        }
      }
      attr {
        key: "unit"
        value {
          s: "BYTE"
        }
      }
      experimental_debug_info {
        original_node_names: "decode_image/is_jpeg/Substr"
      }
    }
    node_def {
      name: "decode_image/is_jpeg/Equal/y"
      op: "Const"
      attr {
        key: "_output_shapes"
        value {
          list {
            shape {
            }
          }
        }
      }
      attr {
        key: "dtype"
        value {
          type: DT_STRING
        }
      }
      attr {
        key: "value"
        value {
          tensor {
            dtype: DT_STRING
            tensor_shape {
            }
            string_val: "\377\330\377"
          }
        }
      }
      experimental_debug_info {
        original_node_names: "decode_image/is_jpeg/Equal/y"
      }
    }
    node_def {
      name: "decode_image/is_jpeg/Equal"
      op: "Equal"
      input: "decode_image/is_jpeg/Substr:output:0"
      input: "decode_image/is_jpeg/Equal/y:output:0"
      attr {
        key: "T"
        value {
          type: DT_STRING
        }
      }
      attr {
        key: "_output_shapes"
        value {
          list {
            shape {
            }
          }
        }
      }
      attr {
        key: "incompatible_shape_error"
        value {
          b: true
        }
      }
      experimental_debug_info {
        original_node_names: "decode_image/is_jpeg/Equal"
      }
    }
    node_def {
      name: "decode_image/cond_jpeg"
      op: "If"
      input: "decode_image/is_jpeg/Equal:z:0"
      input: "Reshape:output:0"
      input: "decode_image/Substr:output:0"
      attr {
        key: "Tcond"
        value {
          type: DT_BOOL
        }
      }
      attr {
        key: "Tin"
        value {
          list {
            type: DT_STRING
            type: DT_STRING
          }
        }
      }
      attr {
        key: "Tout"
        value {
          list {
            type: DT_UINT8
          }
        }
      }
      attr {
        key: "_lower_using_switch_merge"
        value {
          b: true
        }
      }
      attr {
        key: "_output_shapes"
        value {
          list {
            shape {
              unknown_rank: true
            }
          }
        }
      }
      attr {
        key: "_read_only_resource_inputs"
        value {
          list {
          }
        }
      }
      attr {
        key: "else_branch"
        value {
          func {
            name: "decode_image_cond_jpeg_false_74"
          }
        }
      }
      attr {
        key: "output_shapes"
        value {
          list {
            shape {
              unknown_rank: true
            }
          }
        }
      }
      attr {
        key: "then_branch"
        value {
          func {
            name: "decode_image_cond_jpeg_true_73"
          }
        }
      }
      experimental_debug_info {
        original_node_names: "decode_image/cond_jpeg"
      }
    }
    node_def {
      name: "decode_image/cond_jpeg/Identity"
      op: "Identity"
      input: "decode_image/cond_jpeg:output:0"
      attr {
        key: "T"
        value {
          type: DT_UINT8
        }
      }
      attr {
        key: "_output_shapes"
        value {
          list {
            shape {
              dim {
                size: 28
              }
              dim {
                size: 28
              }
              dim {
                size: 1
              }
            }
          }
        }
      }
      experimental_debug_info {
        original_node_names: "decode_image/cond_jpeg/Identity"
      }
    }
    node_def {
      name: "Identity"
      op: "Identity"
      input: "decode_image/cond_jpeg/Identity:output:0"
      input: "^decode_image/cond_jpeg"
      attr {
        key: "T"
        value {
          type: DT_UINT8
        }
      }
      attr {
        key: "_output_shapes"
        value {
          list {
            shape {
              dim {
                size: 28
              }
              dim {
                size: 28
              }
              dim {
                size: 1
              }
            }
          }
        }
      }
      experimental_debug_info {
        original_node_names: "Identity"
      }
    }
    node_def {
      name: "Identity_1"
      op: "Identity"
      input: "Reshape_1:output:0"
      input: "^decode_image/cond_jpeg"
      attr {
        key: "T"
        value {
          type: DT_INT64
        }
      }
      attr {
        key: "_output_shapes"
        value {
          list {
            shape {
            }
          }
        }
      }
      experimental_debug_info {
        original_node_names: "Identity_1"
      }
    }
    ret {
      key: "identity"
      value: "Identity:output:0"
    }
    ret {
      key: "identity_1"
      value: "Identity_1:output:0"
    }
    attr {
      key: "_input_shapes"
      value {
        list {
          shape {
          }
        }
      }
    }
    control_ret {
      key: "decode_image/cond_jpeg"
      value: "decode_image/cond_jpeg"
    }
    arg_attr {
      key: 0
      value {
        attr {
          key: "_output_shapes"
          value {
            list {
              shape {
              }
            }
          }
        }
        attr {
          key: "_user_specified_name"
          value {
            s: "args_0"
          }
        }
      }
    }
  }
}
versions {
  producer: 175
  min_consumer: 12
}
